/home/anllinux/miniconda3/envs/BAD-NeRF/lib/python3.8/site-packages/onnxscript/converter.py:823: FutureWarning: 'onnxscript.values.Op.param_schemas' is deprecated in version 0.1 and will be removed in the future. Please use '.op_signature' instead.
  param_schemas = callee.param_schemas()
/home/anllinux/miniconda3/envs/BAD-NeRF/lib/python3.8/site-packages/onnxscript/converter.py:823: FutureWarning: 'onnxscript.values.OnnxFunction.param_schemas' is deprecated in version 0.1 and will be removed in the future. Please use '.op_signature' instead.
  param_schemas = callee.param_schemas()
/home/anllinux/MLsys/DeblurGANv2/DeblurGANv2-master/predict.py:25: FutureWarning: You are using `torch.load` with `weights_only=False` (the current default value), which uses the default pickle module implicitly. It is possible to construct malicious pickle data which will execute arbitrary code during unpickling (See https://github.com/pytorch/pytorch/blob/main/SECURITY.md#untrusted-models for more details). In a future release, the default value for `weights_only` will be flipped to `True`. This limits the functions that could be executed during unpickling. Arbitrary objects will no longer be allowed to be loaded via this mode unless they are explicitly allowlisted by the user via `torch.serialization.add_safe_globals`. We recommend you start setting `weights_only=True` for any use case where you don't have full control of the loaded file. Please open an issue on GitHub for any issues related to this experimental feature.
  model.load_state_dict(torch.load(weights_path,map_location=torch.device('cpu'))['model'])
/home/anllinux/MLsys/DeblurGANv2/DeblurGANv2-master/models/fpn_inception.py:164: UserWarning: `nn.functional.upsample` is deprecated. Use `nn.functional.interpolate` instead.
  map3 = self.td1(lateral3 + nn.functional.upsample(map4, scale_factor=2, mode="nearest"))
/home/anllinux/MLsys/DeblurGANv2/DeblurGANv2-master/models/fpn_inception.py:165: UserWarning: `nn.functional.upsample` is deprecated. Use `nn.functional.interpolate` instead.
  map2 = self.td2(F.pad(lateral2, pad, "reflect") + nn.functional.upsample(map3, scale_factor=2, mode="nearest"))
/home/anllinux/MLsys/DeblurGANv2/DeblurGANv2-master/models/fpn_inception.py:166: UserWarning: `nn.functional.upsample` is deprecated. Use `nn.functional.interpolate` instead.
  map1 = self.td3(lateral1 + nn.functional.upsample(map2, scale_factor=2, mode="nearest"))
/home/anllinux/MLsys/DeblurGANv2/DeblurGANv2-master/models/fpn_inception.py:68: UserWarning: `nn.functional.upsample` is deprecated. Use `nn.functional.interpolate` instead.
  map4 = nn.functional.upsample(self.head4(map4), scale_factor=8, mode="nearest")
/home/anllinux/MLsys/DeblurGANv2/DeblurGANv2-master/models/fpn_inception.py:69: UserWarning: `nn.functional.upsample` is deprecated. Use `nn.functional.interpolate` instead.
  map3 = nn.functional.upsample(self.head3(map3), scale_factor=4, mode="nearest")
/home/anllinux/MLsys/DeblurGANv2/DeblurGANv2-master/models/fpn_inception.py:70: UserWarning: `nn.functional.upsample` is deprecated. Use `nn.functional.interpolate` instead.
  map2 = nn.functional.upsample(self.head2(map2), scale_factor=2, mode="nearest")
/home/anllinux/MLsys/DeblurGANv2/DeblurGANv2-master/models/fpn_inception.py:71: UserWarning: `nn.functional.upsample` is deprecated. Use `nn.functional.interpolate` instead.
  map1 = nn.functional.upsample(self.head1(map1), scale_factor=1, mode="nearest")
/home/anllinux/MLsys/DeblurGANv2/DeblurGANv2-master/models/fpn_inception.py:74: UserWarning: `nn.functional.upsample` is deprecated. Use `nn.functional.interpolate` instead.
  smoothed = nn.functional.upsample(smoothed, scale_factor=2, mode="nearest")
/home/anllinux/MLsys/DeblurGANv2/DeblurGANv2-master/models/fpn_inception.py:76: UserWarning: `nn.functional.upsample` is deprecated. Use `nn.functional.interpolate` instead.
  smoothed = nn.functional.upsample(smoothed, scale_factor=2, mode="nearest")
/home/anllinux/miniconda3/envs/BAD-NeRF/lib/python3.8/site-packages/torch/onnx/_internal/jit_utils.py:314: UserWarning: Constant folding - Only steps=1 can be constant folded for opset >= 10 onnx::Slice op. Constant folding not applied. (Triggered internally at /opt/conda/conda-bld/pytorch_1724788959220/work/torch/csrc/jit/passes/onnx/constant_fold.cpp:179.)
  _C._jit_pass_onnx_node_shape_type_inference(node, params_dict, opset_version)
/home/anllinux/miniconda3/envs/BAD-NeRF/lib/python3.8/site-packages/torch/onnx/symbolic_helper.py:1531: UserWarning: ONNX export mode is set to TrainingMode.EVAL, but operator 'instance_norm' is set to train=True. Exporting with train=True.
  warnings.warn(
Traceback (most recent call last):
  File "torch2onnx.py", line 101, in <module>
    model_onnx = torch.onnx.export(
  File "/home/anllinux/miniconda3/envs/BAD-NeRF/lib/python3.8/site-packages/torch/onnx/utils.py", line 551, in export
    _export(
  File "/home/anllinux/miniconda3/envs/BAD-NeRF/lib/python3.8/site-packages/torch/onnx/utils.py", line 1648, in _export
    graph, params_dict, torch_out = _model_to_graph(
  File "/home/anllinux/miniconda3/envs/BAD-NeRF/lib/python3.8/site-packages/torch/onnx/utils.py", line 1174, in _model_to_graph
    graph = _optimize_graph(
  File "/home/anllinux/miniconda3/envs/BAD-NeRF/lib/python3.8/site-packages/torch/onnx/utils.py", line 714, in _optimize_graph
    graph = _C._jit_pass_onnx(graph, operator_export_type)
  File "/home/anllinux/miniconda3/envs/BAD-NeRF/lib/python3.8/site-packages/torch/onnx/utils.py", line 1997, in _run_symbolic_function
    return symbolic_fn(graph_context, *inputs, **attrs)
  File "/home/anllinux/miniconda3/envs/BAD-NeRF/lib/python3.8/site-packages/torch/onnx/symbolic_helper.py", line 292, in wrapper
    return fn(g, *args, **kwargs)
  File "/home/anllinux/miniconda3/envs/BAD-NeRF/lib/python3.8/site-packages/torch/onnx/symbolic_opset9.py", line 2969, in instance_norm
    raise errors.SymbolicValueError(
torch.onnx.errors.SymbolicValueError: Unsupported: ONNX export of instance_norm training for unknown batch size.  [Caused by the value 'input.2036 defined in (%input.2036 : Float(*, 256, *, *, strides=[965632, 3772, 82, 1], requires_grad=0, device=cpu) = onnx::Conv[dilations=[1, 1], group=1, kernel_shape=[3, 3], pads=[1, 1, 1, 1], strides=[1, 1]](%input.2032, %fpn.td1.0.weight, %fpn.td1.0.bias), scope: models.fpn_inception.FPNInception::/models.fpn_inception.FPN::fpn/torch.nn.modules.container.Sequential::td1/torch.nn.modules.conv.Conv2d::td1.0 # /home/anllinux/miniconda3/envs/BAD-NeRF/lib/python3.8/site-packages/torch/nn/modules/conv.py:454:0
)' (type 'Tensor') in the TorchScript graph. The containing node has kind 'onnx::Conv'.] 
    (node defined in /home/anllinux/miniconda3/envs/BAD-NeRF/lib/python3.8/site-packages/torch/nn/modules/conv.py(454): _conv_forward
/home/anllinux/miniconda3/envs/BAD-NeRF/lib/python3.8/site-packages/torch/nn/modules/conv.py(458): forward
/home/anllinux/miniconda3/envs/BAD-NeRF/lib/python3.8/site-packages/torch/nn/modules/module.py(1543): _slow_forward
/home/anllinux/miniconda3/envs/BAD-NeRF/lib/python3.8/site-packages/torch/nn/modules/module.py(1562): _call_impl
/home/anllinux/miniconda3/envs/BAD-NeRF/lib/python3.8/site-packages/torch/nn/modules/module.py(1553): _wrapped_call_impl
/home/anllinux/miniconda3/envs/BAD-NeRF/lib/python3.8/site-packages/torch/nn/modules/container.py(219): forward
/home/anllinux/miniconda3/envs/BAD-NeRF/lib/python3.8/site-packages/torch/nn/modules/module.py(1543): _slow_forward
/home/anllinux/miniconda3/envs/BAD-NeRF/lib/python3.8/site-packages/torch/nn/modules/module.py(1562): _call_impl
/home/anllinux/miniconda3/envs/BAD-NeRF/lib/python3.8/site-packages/torch/nn/modules/module.py(1553): _wrapped_call_impl
/home/anllinux/MLsys/DeblurGANv2/DeblurGANv2-master/models/fpn_inception.py(164): forward
/home/anllinux/miniconda3/envs/BAD-NeRF/lib/python3.8/site-packages/torch/nn/modules/module.py(1543): _slow_forward
/home/anllinux/miniconda3/envs/BAD-NeRF/lib/python3.8/site-packages/torch/nn/modules/module.py(1562): _call_impl
/home/anllinux/miniconda3/envs/BAD-NeRF/lib/python3.8/site-packages/torch/nn/modules/module.py(1553): _wrapped_call_impl
/home/anllinux/MLsys/DeblurGANv2/DeblurGANv2-master/models/fpn_inception.py(66): forward
/home/anllinux/miniconda3/envs/BAD-NeRF/lib/python3.8/site-packages/torch/nn/modules/module.py(1543): _slow_forward
/home/anllinux/miniconda3/envs/BAD-NeRF/lib/python3.8/site-packages/torch/nn/modules/module.py(1562): _call_impl
/home/anllinux/miniconda3/envs/BAD-NeRF/lib/python3.8/site-packages/torch/nn/modules/module.py(1553): _wrapped_call_impl
/home/anllinux/miniconda3/envs/BAD-NeRF/lib/python3.8/site-packages/torch/jit/_trace.py(132): wrapper
/home/anllinux/miniconda3/envs/BAD-NeRF/lib/python3.8/site-packages/torch/jit/_trace.py(141): forward
/home/anllinux/miniconda3/envs/BAD-NeRF/lib/python3.8/site-packages/torch/nn/modules/module.py(1562): _call_impl
/home/anllinux/miniconda3/envs/BAD-NeRF/lib/python3.8/site-packages/torch/nn/modules/module.py(1553): _wrapped_call_impl
/home/anllinux/miniconda3/envs/BAD-NeRF/lib/python3.8/site-packages/torch/jit/_trace.py(1497): _get_trace_graph
/home/anllinux/miniconda3/envs/BAD-NeRF/lib/python3.8/site-packages/torch/onnx/utils.py(950): _trace_and_get_graph_from_model
/home/anllinux/miniconda3/envs/BAD-NeRF/lib/python3.8/site-packages/torch/onnx/utils.py(1046): _create_jit_graph
/home/anllinux/miniconda3/envs/BAD-NeRF/lib/python3.8/site-packages/torch/onnx/utils.py(1170): _model_to_graph
/home/anllinux/miniconda3/envs/BAD-NeRF/lib/python3.8/site-packages/torch/onnx/utils.py(1648): _export
/home/anllinux/miniconda3/envs/BAD-NeRF/lib/python3.8/site-packages/torch/onnx/utils.py(551): export
torch2onnx.py(101): <module>
)

    Inputs:
        #0: input.2032 defined in (%input.2032 : Float(*, *, *, *, strides=[965632, 3772, 82, 1], requires_grad=1, device=cpu) = onnx::Add(%2134, %2168), scope: models.fpn_inception.FPNInception::/models.fpn_inception.FPN::fpn # /home/anllinux/MLsys/DeblurGANv2/DeblurGANv2-master/models/fpn_inception.py:164:0
    )  (type 'Tensor')
        #1: fpn.td1.0.weight defined in (%input.1 : Float(1, 3, 736, 1312, strides=[2896896, 965632, 1312, 1], requires_grad=0, device=cpu), %fpn.inception.conv2d_1a.conv.weight : Float(32, 3, 3, 3, strides=[27, 9, 3, 1], requires_grad=0, device=cpu), %fpn.inception.conv2d_1a.bn.weight : Float(32, strides=[1], requires_grad=0, device=cpu), %fpn.inception.conv2d_1a.bn.bias : Float(32, strides=[1], requires_grad=0, device=cpu), %fpn.inception.conv2d_1a.bn.running_mean : Float(32, strides=[1], requires_grad=0, device=cpu), %fpn.inception.conv2d_1a.bn.running_var : Float(32, strides=[1], requires_grad=0, device=cpu), %fpn.inception.conv2d_1a.bn.num_batches_tracked : Long(requires_grad=0, device=cpu), %fpn.inception.conv2d_2a.conv.weight : Float(32, 32, 3, 3, strides=[288, 9, 3, 1], requires_grad=0, device=cpu), %fpn.inception.conv2d_2a.bn.weight : Float(32, strides=[1], requires_grad=0, device=cpu), %fpn.inception.conv2d_2a.bn.bias : Float(32, strides=[1], requires_grad=0, device=cpu), %fpn.inception.conv2d_2a.bn.running_mean : Float(32, strides=[1], requires_grad=0, device=cpu), %fpn.inception.conv2d_2a.bn.running_var : Float(32, strides=[1], requires_grad=0, device=cpu), %fpn.inception.conv2d_2a.bn.num_batches_tracked : Long(requires_grad=0, device=cpu), %fpn.inception.conv2d_2b.conv.weight : Float(64, 32, 3, 3, strides=[288, 9, 3, 1], requires_grad=0, device=cpu), %fpn.inception.conv2d_2b.bn.weight : Float(64, strides=[1], requires_grad=0, device=cpu), %fpn.inception.conv2d_2b.bn.bias : Float(64, strides=[1], requires_grad=0, device=cpu), %fpn.inception.conv2d_2b.bn.running_mean : Float(64, strides=[1], requires_grad=0, device=cpu), %fpn.inception.conv2d_2b.bn.running_var : Float(64, strides=[1], requires_grad=0, device=cpu), %fpn.inception.conv2d_2b.bn.num_batches_tracked : Long(requires_grad=0, device=cpu), %fpn.inception.conv2d_3b.conv.weight : Float(80, 64, 1, 1, strides=[64, 1, 1, 1], requires_grad=0, device=cpu), %fpn.inception.conv2d_3b.bn.weight : Float(80, strides=[1], requires_grad=0, device=cpu), %fpn.inception.conv2d_3b.bn.bias : Float(80, strides=[1], requires_grad=0, device=cpu), %fpn.inception.conv2d_3b.bn.running_mean : Float(80, strides=[1], requires_grad=0, device=cpu), %fpn.inception.conv2d_3b.bn.running_var : Float(80, strides=[1], requires_grad=0, device=cpu), %fpn.inception.conv2d_3b.bn.num_batches_tracked : Long(requires_grad=0, device=cpu), %fpn.inception.conv2d_4a.conv.weight : Float(192, 80, 3, 3, strides=[720, 9, 3, 1], requires_grad=0, device=cpu), %fpn.inception.conv2d_4a.bn.weight : Float(192, strides=[1], requires_grad=0, device=cpu), %fpn.inception.conv2d_4a.bn.bias : Float(192, strides=[1], requires_grad=0, device=cpu), %fpn.inception.conv2d_4a.bn.running_mean : Float(192, strides=[1], requires_grad=0, device=cpu), %fpn.inception.conv2d_4a.bn.running_var : Float(192, strides=[1], requires_grad=0, device=cpu), %fpn.inception.conv2d_4a.bn.num_batches_tracked : Long(requires_grad=0, device=cpu), %fpn.inception.mixed_5b.branch0.conv.weight : Float(96, 192, 1, 1, strides=[192, 1, 1, 1], requires_grad=0, device=cpu), %fpn.inception.mixed_5b.branch0.bn.weight : Float(96, strides=[1], requires_grad=0, device=cpu), %fpn.inception.mixed_5b.branch0.bn.bias : Float(96, strides=[1], requires_grad=0, device=cpu), %fpn.inception.mixed_5b.branch0.bn.running_mean : Float(96, strides=[1], requires_grad=0, device=cpu), %fpn.inception.mixed_5b.branch0.bn.running_var : Float(96, strides=[1], requires_grad=0, device=cpu), %fpn.inception.mixed_5b.branch0.bn.num_batches_tracked : Long(requires_grad=0, device=cpu), %fpn.inception.mixed_5b.branch1.0.conv.weight : Float(48, 192, 1, 1, strides=[192, 1, 1, 1], requires_grad=0, device=cpu), %fpn.inception.mixed_5b.branch1.0.bn.weight : Float(48, strides=[1], requires_grad=0, device=cpu), %fpn.inception.mixed_5b.branch1.0.bn.bias : Float(48, strides=[1], requires_grad=0, device=cpu), %fpn.inception.mixed_5b.branch1.0.bn.running_mean : Float(48, strides=[1], requires_grad=0, device=cpu), %fpn.inception.mixed_5b.branch1.0.bn.running_var : Float(48, strides=[1], requires_grad=0, device=cpu), %fpn.inception.mixed_5b.branch1.0.bn.num_batches_tracked : Long(requires_grad=0, device=cpu), %fpn.inception.mixed_5b.branch1.1.conv.weight : Float(64, 48, 5, 5, strides=[1200, 25, 5, 1], requires_grad=0, device=cpu), %fpn.inception.mixed_5b.branch1.1.bn.weight : Float(64, strides=[1], requires_grad=0, device=cpu), %fpn.inception.mixed_5b.branch1.1.bn.bias : Float(64, strides=[1], requires_grad=0, device=cpu), %fpn.inception.mixed_5b.branch1.1.bn.running_mean : Float(64, strides=[1], requires_grad=0, device=cpu), %fpn.inception.mixed_5b.branch1.1.bn.running_var : Float(64, strides=[1], requires_grad=0, device=cpu), %fpn.inception.mixed_5b.branch1.1.bn.num_batches_tracked : Long(requires_grad=0, device=cpu), %fpn.inception.mixed_5b.branch2.0.conv.weight : Float(64, 192, 1, 1, strides=[192, 1, 1, 1], requires_grad=0, device=cpu), %fpn.inception.mixed_5b.branch2.0.bn.weight : Float(64, strides=[1], requires_grad=0, device=cpu), %fpn.inception.mixed_5b.branch2.0.bn.bias : Float(64, strides=[1], requires_grad=0, device=cpu), %fpn.inception.mixed_5b.branch2.0.bn.running_mean : Float(64, strides=[1], requires_grad=0, device=cpu), %fpn.inception.mixed_5b.branch2.0.bn.running_var : Float(64, strides=[1], requires_grad=0, device=cpu), %fpn.inception.mixed_5b.branch2.0.bn.num_batches_tracked : Long(requires_grad=0, device=cpu), %fpn.inception.mixed_5b.branch2.1.conv.weight : Float(96, 64, 3, 3, strides=[576, 9, 3, 1], requires_grad=0, device=cpu), %fpn.inception.mixed_5b.branch2.1.bn.weight : Float(96, strides=[1], requires_grad=0, device=cpu), %fpn.inception.mixed_5b.branch2.1.bn.bias : Float(96, strides=[1], requires_grad=0, device=cpu), %fpn.inception.mixed_5b.branch2.1.bn.running_mean : Float(96, strides=[1], requires_grad=0, device=cpu), %fpn.inception.mixed_5b.branch2.1.bn.running_var : Float(96, strides=[1], requires_grad=0, device=cpu), %fpn.inception.mixed_5b.branch2.1.bn.num_batches_tracked : Long(requires_grad=0, device=cpu), %fpn.inception.mixed_5b.branch2.2.conv.weight : Float(96, 96, 3, 3, strides=[864, 9, 3, 1], requires_grad=0, device=cpu), %fpn.inception.mixed_5b.branch2.2.bn.weight : Float(96, strides=[1], requires_grad=0, device=cpu), %fpn.inception.mixed_5b.branch2.2.bn.bias : Float(96, strides=[1], requires_grad=0, device=cpu), %fpn.inception.mixed_5b.branch2.2.bn.running_mean : Float(96, strides=[1], requires_grad=0, device=cpu), %fpn.inception.mixed_5b.branch2.2.bn.running_var : Float(96, strides=[1], requires_grad=0, device=cpu), %fpn.inception.mixed_5b.branch2.2.bn.num_batches_tracked : Long(requires_grad=0, device=cpu), %fpn.inception.mixed_5b.branch3.1.conv.weight : Float(64, 192, 1, 1, strides=[192, 1, 1, 1], requires_grad=0, device=cpu), %fpn.inception.mixed_5b.branch3.1.bn.weight : Float(64, strides=[1], requires_grad=0, device=cpu), %fpn.inception.mixed_5b.branch3.1.bn.bias : Float(64, strides=[1], requires_grad=0, device=cpu), %fpn.inception.mixed_5b.branch3.1.bn.running_mean : Float(64, strides=[1], requires_grad=0, device=cpu), %fpn.inception.mixed_5b.branch3.1.bn.running_var : Float(64, strides=[1], requires_grad=0, device=cpu), %fpn.inception.mixed_5b.branch3.1.bn.num_batches_tracked : Long(requires_grad=0, device=cpu), %fpn.inception.repeat.0.branch0.conv.weight : Float(32, 320, 1, 1, strides=[320, 1, 1, 1], requires_grad=0, device=cpu), %fpn.inception.repeat.0.branch0.bn.weight : Float(32, strides=[1], requires_grad=0, device=cpu), %fpn.inception.repeat.0.branch0.bn.bias : Float(32, strides=[1], requires_grad=0, device=cpu), %fpn.inception.repeat.0.branch0.bn.running_mean : Float(32, strides=[1], requires_grad=0, device=cpu), %fpn.inception.repeat.0.branch0.bn.running_var : Float(32, strides=[1], requires_grad=0, device=cpu), %fpn.inception.repeat.0.branch0.bn.num_batches_tracked : Long(requires_grad=0, device=cpu), %fpn.inception.repeat.0.branch1.0.conv.weight : Float(32, 320, 1, 1, strides=[320, 1, 1, 1], requires_grad=0, device=cpu), %fpn.inception.repeat.0.branch1.0.bn.weight : Float(32, strides=[1], requires_grad=0, device=cpu), %fpn.inception.repeat.0.branch1.0.bn.bias : Float(32, strides=[1], requires_grad=0, device=cpu), %fpn.inception.repeat.0.branch1.0.bn.running_mean : Float(32, strides=[1], requires_grad=0, device=cpu), %fpn.inception.repeat.0.branch1.0.bn.running_var : Float(32, strides=[1], requires_grad=0, device=cpu), %fpn.inception.repeat.0.branch1.0.bn.num_batches_tracked : Long(requires_grad=0, device=cpu), %fpn.inception.repeat.0.branch1.1.conv.weight : Float(32, 32, 3, 3, strides=[288, 9, 3, 1], requires_grad=0, device=cpu), %fpn.inception.repeat.0.branch1.1.bn.weight : Float(32, strides=[1], requires_grad=0, device=cpu), %fpn.inception.repeat.0.branch1.1.bn.bias : Float(32, strides=[1], requires_grad=0, device=cpu), %fpn.inception.repeat.0.branch1.1.bn.running_mean : Float(32, strides=[1], requires_grad=0, device=cpu), %fpn.inception.repeat.0.branch1.1.bn.running_var : Float(32, strides=[1], requires_grad=0, device=cpu), %fpn.inception.repeat.0.branch1.1.bn.num_batches_tracked : Long(requires_grad=0, device=cpu), %fpn.inception.repeat.0.branch2.0.conv.weight : Float(32, 320, 1, 1, strides=[320, 1, 1, 1], requires_grad=0, device=cpu), %fpn.inception.repeat.0.branch2.0.bn.weight : Float(32, strides=[1], requires_grad=0, device=cpu), %fpn.inception.repeat.0.branch2.0.bn.bias : Float(32, strides=[1], requires_grad=0, device=cpu), %fpn.inception.repeat.0.branch2.0.bn.running_mean : Float(32, strides=[1], requires_grad=0, device=cpu), %fpn.inception.repeat.0.branch2.0.bn.running_var : Float(32, strides=[1], requires_grad=0, device=cpu), %fpn.inception.repeat.0.branch2.0.bn.num_batches_tracked : Long(requires_grad=0, device=cpu), %fpn.inception.repeat.0.branch2.1.conv.weight : Float(48, 32, 3, 3, strides=[288, 9, 3, 1], requires_grad=0, device=cpu), %fpn.inception.repeat.0.branch2.1.bn.weight : Float(48, strides=[1], requires_grad=0, device=cpu), %fpn.inception.repeat.0.branch2.1.bn.bias : Float(48, strides=[1], requires_grad=0, device=cpu), %fpn.inception.repeat.0.branch2.1.bn.running_mean : Float(48, strides=[1], requires_grad=0, device=cpu), %fpn.inception.repeat.0.branch2.1.bn.running_var : Float(48, strides=[1], requires_grad=0, device=cpu), %fpn.inception.repeat.0.branch2.1.bn.num_batches_tracked : Long(requires_grad=0, device=cpu), %fpn.inception.repeat.0.branch2.2.conv.weight : Float(64, 48, 3, 3, strides=[432, 9, 3, 1], requires_grad=0, device=cpu), %fpn.inception.repeat.0.branch2.2.bn.weight : Float(64, strides=[1], requires_grad=0, device=cpu), %fpn.inception.repeat.0.branch2.2.bn.bias : Float(64, strides=[1], requires_grad=0, device=cpu), %fpn.inception.repeat.0.branch2.2.bn.running_mean : Float(64, strides=[1], requires_grad=0, device=cpu), %fpn.inception.repeat.0.branch2.2.bn.running_var : Float(64, strides=[1], requires_grad=0, device=cpu), %fpn.inception.repeat.0.branch2.2.bn.num_batches_tracked : Long(requires_grad=0, device=cpu), %fpn.inception.repeat.0.conv2d.weight : Float(320, 128, 1, 1, strides=[128, 1, 1, 1], requires_grad=0, device=cpu), %fpn.inception.repeat.0.conv2d.bias : Float(320, strides=[1], requires_grad=0, device=cpu), %fpn.inception.repeat.1.branch0.conv.weight : Float(32, 320, 1, 1, strides=[320, 1, 1, 1], requires_grad=0, device=cpu), %fpn.inception.repeat.1.branch0.bn.weight : Float(32, strides=[1], requires_grad=0, device=cpu), %fpn.inception.repeat.1.branch0.bn.bias : Float(32, strides=[1], requires_grad=0, device=cpu), %fpn.inception.repeat.1.branch0.bn.running_mean : Float(32, strides=[1], requires_grad=0, device=cpu), %fpn.inception.repeat.1.branch0.bn.running_var : Float(32, strides=[1], requires_grad=0, device=cpu), %fpn.inception.repeat.1.branch0.bn.num_batches_tracked : Long(requires_grad=0, device=cpu), %fpn.inception.repeat.1.branch1.0.conv.weight : Float(32, 320, 1, 1, strides=[320, 1, 1, 1], requires_grad=0, device=cpu), %fpn.inception.repeat.1.branch1.0.bn.weight : Float(32, strides=[1], requires_grad=0, device=cpu), %fpn.inception.repeat.1.branch1.0.bn.bias : Float(32, strides=[1], requires_grad=0, device=cpu), %fpn.inception.repeat.1.branch1.0.bn.running_mean : Float(32, strides=[1], requires_grad=0, device=cpu), %fpn.inception.repeat.1.branch1.0.bn.running_var : Float(32, strides=[1], requires_grad=0, device=cpu), %fpn.inception.repeat.1.branch1.0.bn.num_batches_tracked : Long(requires_grad=0, device=cpu), %fpn.inception.repeat.1.branch1.1.conv.weight : Float(32, 32, 3, 3, strides=[288, 9, 3, 1], requires_grad=0, device=cpu), %fpn.inception.repeat.1.branch1.1.bn.weight : Float(32, strides=[1], requires_grad=0, device=cpu), %fpn.inception.repeat.1.branch1.1.bn.bias : Float(32, strides=[1], requires_grad=0, device=cpu), %fpn.inception.repeat.1.branch1.1.bn.running_mean : Float(32, strides=[1], requires_grad=0, device=cpu), %fpn.inception.repeat.1.branch1.1.bn.running_var : Float(32, strides=[1], requires_grad=0, device=cpu), %fpn.inception.repeat.1.branch1.1.bn.num_batches_tracked : Long(requires_grad=0, device=cpu), %fpn.inception.repeat.1.branch2.0.conv.weight : Float(32, 320, 1, 1, strides=[320, 1, 1, 1], requires_grad=0, device=cpu), %fpn.inception.repeat.1.branch2.0.bn.weight : Float(32, strides=[1], requires_grad=0, device=cpu), %fpn.inception.repeat.1.branch2.0.bn.bias : Float(32, strides=[1], requires_grad=0, device=cpu), %fpn.inception.repeat.1.branch2.0.bn.running_mean : Float(32, strides=[1], requires_grad=0, device=cpu), %fpn.inception.repeat.1.branch2.0.bn.running_var : Float(32, strides=[1], requires_grad=0, device=cpu), %fpn.inception.repeat.1.branch2.0.bn.num_batches_tracked : Long(requires_grad=0, device=cpu), %fpn.inception.repeat.1.branch2.1.conv.weight : Float(48, 32, 3, 3, strides=[288, 9, 3, 1], requires_grad=0, device=cpu), %fpn.inception.repeat.1.branch2.1.bn.weight : Float(48, strides=[1], requires_grad=0, device=cpu), %fpn.inception.repeat.1.branch2.1.bn.bias : Float(48, strides=[1], requires_grad=0, device=cpu), %fpn.inception.repeat.1.branch2.1.bn.running_mean : Float(48, strides=[1], requires_grad=0, device=cpu), %fpn.inception.repeat.1.branch2.1.bn.running_var : Float(48, strides=[1], requires_grad=0, device=cpu), %fpn.inception.repeat.1.branch2.1.bn.num_batches_tracked : Long(requires_grad=0, device=cpu), %fpn.inception.repeat.1.branch2.2.conv.weight : Float(64, 48, 3, 3, strides=[432, 9, 3, 1], requires_grad=0, device=cpu), %fpn.inception.repeat.1.branch2.2.bn.weight : Float(64, strides=[1], requires_grad=0, device=cpu), %fpn.inception.repeat.1.branch2.2.bn.bias : Float(64, strides=[1], requires_grad=0, device=cpu), %fpn.inception.repeat.1.branch2.2.bn.running_mean : Float(64, strides=[1], requires_grad=0, device=cpu), %fpn.inception.repeat.1.branch2.2.bn.running_var : Float(64, strides=[1], requires_grad=0, device=cpu), %fpn.inception.repeat.1.branch2.2.bn.num_batches_tracked : Long(requires_grad=0, device=cpu), %fpn.inception.repeat.1.conv2d.weight : Float(320, 128, 1, 1, strides=[128, 1, 1, 1], requires_grad=0, device=cpu), %fpn.inception.repeat.1.conv2d.bias : Float(320, strides=[1], requires_grad=0, device=cpu), %fpn.inception.repeat.2.branch0.conv.weight : Float(32, 320, 1, 1, strides=[320, 1, 1, 1], requires_grad=0, device=cpu), %fpn.inception.repeat.2.branch0.bn.weight : Float(32, strides=[1], requires_grad=0, device=cpu), %fpn.inception.repeat.2.branch0.bn.bias : Float(32, strides=[1], requires_grad=0, device=cpu), %fpn.inception.repeat.2.branch0.bn.running_mean : Float(32, strides=[1], requires_grad=0, device=cpu), %fpn.inception.repeat.2.branch0.bn.running_var : Float(32, strides=[1], requires_grad=0, device=cpu), %fpn.inception.repeat.2.branch0.bn.num_batches_tracked : Long(requires_grad=0, device=cpu), %fpn.inception.repeat.2.branch1.0.conv.weight : Float(32, 320, 1, 1, strides=[320, 1, 1, 1], requires_grad=0, device=cpu), %fpn.inception.repeat.2.branch1.0.bn.weight : Float(32, strides=[1], requires_grad=0, device=cpu), %fpn.inception.repeat.2.branch1.0.bn.bias : Float(32, strides=[1], requires_grad=0, device=cpu), %fpn.inception.repeat.2.branch1.0.bn.running_mean : Float(32, strides=[1], requires_grad=0, device=cpu), %fpn.inception.repeat.2.branch1.0.bn.running_var : Float(32, strides=[1], requires_grad=0, device=cpu), %fpn.inception.repeat.2.branch1.0.bn.num_batches_tracked : Long(requires_grad=0, device=cpu), %fpn.inception.repeat.2.branch1.1.conv.weight : Float(32, 32, 3, 3, strides=[288, 9, 3, 1], requires_grad=0, device=cpu), %fpn.inception.repeat.2.branch1.1.bn.weight : Float(32, strides=[1], requires_grad=0, device=cpu), %fpn.inception.repeat.2.branch1.1.bn.bias : Float(32, strides=[1], requires_grad=0, device=cpu), %fpn.inception.repeat.2.branch1.1.bn.running_mean : Float(32, strides=[1], requires_grad=0, device=cpu), %fpn.inception.repeat.2.branch1.1.bn.running_var : Float(32, strides=[1], requires_grad=0, device=cpu), %fpn.inception.repeat.2.branch1.1.bn.num_batches_tracked : Long(requires_grad=0, device=cpu), %fpn.inception.repeat.2.branch2.0.conv.weight : Float(32, 320, 1, 1, strides=[320, 1, 1, 1], requires_grad=0, device=cpu), %fpn.inception.repeat.2.branch2.0.bn.weight : Float(32, strides=[1], requires_grad=0, device=cpu), %fpn.inception.repeat.2.branch2.0.bn.bias : Float(32, strides=[1], requires_grad=0, device=cpu), %fpn.inception.repeat.2.branch2.0.bn.running_mean : Float(32, strides=[1], requires_grad=0, device=cpu), %fpn.inception.repeat.2.branch2.0.bn.running_var : Float(32, strides=[1], requires_grad=0, device=cpu), %fpn.inception.repeat.2.branch2.0.bn.num_batches_tracked : Long(requires_grad=0, device=cpu), %fpn.inception.repeat.2.branch2.1.conv.weight : Float(48, 32, 3, 3, strides=[288, 9, 3, 1], requires_grad=0, device=cpu), %fpn.inception.repeat.2.branch2.1.bn.weight : Float(48, strides=[1], requires_grad=0, device=cpu), %fpn.inception.repeat.2.branch2.1.bn.bias : Float(48, strides=[1], requires_grad=0, device=cpu), %fpn.inception.repeat.2.branch2.1.bn.running_mean : Float(48, strides=[1], requires_grad=0, device=cpu), %fpn.inception.repeat.2.branch2.1.bn.running_var : Float(48, strides=[1], requires_grad=0, device=cpu), %fpn.inception.repeat.2.branch2.1.bn.num_batches_tracked : Long(requires_grad=0, device=cpu), %fpn.inception.repeat.2.branch2.2.conv.weight : Float(64, 48, 3, 3, strides=[432, 9, 3, 1], requires_grad=0, device=cpu), %fpn.inception.repeat.2.branch2.2.bn.weight : Float(64, strides=[1], requires_grad=0, device=cpu), %fpn.inception.repeat.2.branch2.2.bn.bias : Float(64, strides=[1], requires_grad=0, device=cpu), %fpn.inception.repeat.2.branch2.2.bn.running_mean : Float(64, strides=[1], requires_grad=0, device=cpu), %fpn.inception.repeat.2.branch2.2.bn.running_var : Float(64, strides=[1], requires_grad=0, device=cpu), %fpn.inception.repeat.2.branch2.2.bn.num_batches_tracked : Long(requires_grad=0, device=cpu), %fpn.inception.repeat.2.conv2d.weight : Float(320, 128, 1, 1, strides=[128, 1, 1, 1], requires_grad=0, device=cpu), %fpn.inception.repeat.2.conv2d.bias : Float(320, strides=[1], requires_grad=0, device=cpu), %fpn.inception.repeat.3.branch0.conv.weight : Float(32, 320, 1, 1, strides=[320, 1, 1, 1], requires_grad=0, device=cpu), %fpn.inception.repeat.3.branch0.bn.weight : Float(32, strides=[1], requires_grad=0, device=cpu), %fpn.inception.repeat.3.branch0.bn.bias : Float(32, strides=[1], requires_grad=0, device=cpu), %fpn.inception.repeat.3.branch0.bn.running_mean : Float(32, strides=[1], requires_grad=0, device=cpu), %fpn.inception.repeat.3.branch0.bn.running_var : Float(32, strides=[1], requires_grad=0, device=cpu), %fpn.inception.repeat.3.branch0.bn.num_batches_tracked : Long(requires_grad=0, device=cpu), %fpn.inception.repeat.3.branch1.0.conv.weight : Float(32, 320, 1, 1, strides=[320, 1, 1, 1], requires_grad=0, device=cpu), %fpn.inception.repeat.3.branch1.0.bn.weight : Float(32, strides=[1], requires_grad=0, device=cpu), %fpn.inception.repeat.3.branch1.0.bn.bias : Float(32, strides=[1], requires_grad=0, device=cpu), %fpn.inception.repeat.3.branch1.0.bn.running_mean : Float(32, strides=[1], requires_grad=0, device=cpu), %fpn.inception.repeat.3.branch1.0.bn.running_var : Float(32, strides=[1], requires_grad=0, device=cpu), %fpn.inception.repeat.3.branch1.0.bn.num_batches_tracked : Long(requires_grad=0, device=cpu), %fpn.inception.repeat.3.branch1.1.conv.weight : Float(32, 32, 3, 3, strides=[288, 9, 3, 1], requires_grad=0, device=cpu), %fpn.inception.repeat.3.branch1.1.bn.weight : Float(32, strides=[1], requires_grad=0, device=cpu), %fpn.inception.repeat.3.branch1.1.bn.bias : Float(32, strides=[1], requires_grad=0, device=cpu), %fpn.inception.repeat.3.branch1.1.bn.running_mean : Float(32, strides=[1], requires_grad=0, device=cpu), %fpn.inception.repeat.3.branch1.1.bn.running_var : Float(32, strides=[1], requires_grad=0, device=cpu), %fpn.inception.repeat.3.branch1.1.bn.num_batches_tracked : Long(requires_grad=0, device=cpu), %fpn.inception.repeat.3.branch2.0.conv.weight : Float(32, 320, 1, 1, strides=[320, 1, 1, 1], requires_grad=0, device=cpu), %fpn.inception.repeat.3.branch2.0.bn.weight : Float(32, strides=[1], requires_grad=0, device=cpu), %fpn.inception.repeat.3.branch2.0.bn.bias : Float(32, strides=[1], requires_grad=0, device=cpu), %fpn.inception.repeat.3.branch2.0.bn.running_mean : Float(32, strides=[1], requires_grad=0, device=cpu), %fpn.inception.repeat.3.branch2.0.bn.running_var : Float(32, strides=[1], requires_grad=0, device=cpu), %fpn.inception.repeat.3.branch2.0.bn.num_batches_tracked : Long(requires_grad=0, device=cpu), %fpn.inception.repeat.3.branch2.1.conv.weight : Float(48, 32, 3, 3, strides=[288, 9, 3, 1], requires_grad=0, device=cpu), %fpn.inception.repeat.3.branch2.1.bn.weight : Float(48, strides=[1], requires_grad=0, device=cpu), %fpn.inception.repeat.3.branch2.1.bn.bias : Float(48, strides=[1], requires_grad=0, device=cpu), %fpn.inception.repeat.3.branch2.1.bn.running_mean : Float(48, strides=[1], requires_grad=0, device=cpu), %fpn.inception.repeat.3.branch2.1.bn.running_var : Float(48, strides=[1], requires_grad=0, device=cpu), %fpn.inception.repeat.3.branch2.1.bn.num_batches_tracked : Long(requires_grad=0, device=cpu), %fpn.inception.repeat.3.branch2.2.conv.weight : Float(64, 48, 3, 3, strides=[432, 9, 3, 1], requires_grad=0, device=cpu), %fpn.inception.repeat.3.branch2.2.bn.weight : Float(64, strides=[1], requires_grad=0, device=cpu), %fpn.inception.repeat.3.branch2.2.bn.bias : Float(64, strides=[1], requires_grad=0, device=cpu), %fpn.inception.repeat.3.branch2.2.bn.running_mean : Float(64, strides=[1], requires_grad=0, device=cpu), %fpn.inception.repeat.3.branch2.2.bn.running_var : Float(64, strides=[1], requires_grad=0, device=cpu), %fpn.inception.repeat.3.branch2.2.bn.num_batches_tracked : Long(requires_grad=0, device=cpu), %fpn.inception.repeat.3.conv2d.weight : Float(320, 128, 1, 1, strides=[128, 1, 1, 1], requires_grad=0, device=cpu), %fpn.inception.repeat.3.conv2d.bias : Float(320, strides=[1], requires_grad=0, device=cpu), %fpn.inception.repeat.4.branch0.conv.weight : Float(32, 320, 1, 1, strides=[320, 1, 1, 1], requires_grad=0, device=cpu), %fpn.inception.repeat.4.branch0.bn.weight : Float(32, strides=[1], requires_grad=0, device=cpu), %fpn.inception.repeat.4.branch0.bn.bias : Float(32, strides=[1], requires_grad=0, device=cpu), %fpn.inception.repeat.4.branch0.bn.running_mean : Float(32, strides=[1], requires_grad=0, device=cpu), %fpn.inception.repeat.4.branch0.bn.running_var : Float(32, strides=[1], requires_grad=0, device=cpu), %fpn.inception.repeat.4.branch0.bn.num_batches_tracked : Long(requires_grad=0, device=cpu), %fpn.inception.repeat.4.branch1.0.conv.weight : Float(32, 320, 1, 1, strides=[320, 1, 1, 1], requires_grad=0, device=cpu), %fpn.inception.repeat.4.branch1.0.bn.weight : Float(32, strides=[1], requires_grad=0, device=cpu), %fpn.inception.repeat.4.branch1.0.bn.bias : Float(32, strides=[1], requires_grad=0, device=cpu), %fpn.inception.repeat.4.branch1.0.bn.running_mean : Float(32, strides=[1], requires_grad=0, device=cpu), %fpn.inception.repeat.4.branch1.0.bn.running_var : Float(32, strides=[1], requires_grad=0, device=cpu), %fpn.inception.repeat.4.branch1.0.bn.num_batches_tracked : Long(requires_grad=0, device=cpu), %fpn.inception.repeat.4.branch1.1.conv.weight : Float(32, 32, 3, 3, strides=[288, 9, 3, 1], requires_grad=0, device=cpu), %fpn.inception.repeat.4.branch1.1.bn.weight : Float(32, strides=[1], requires_grad=0, device=cpu), %fpn.inception.repeat.4.branch1.1.bn.bias : Float(32, strides=[1], requires_grad=0, device=cpu), %fpn.inception.repeat.4.branch1.1.bn.running_mean : Float(32, strides=[1], requires_grad=0, device=cpu), %fpn.inception.repeat.4.branch1.1.bn.running_var : Float(32, strides=[1], requires_grad=0, device=cpu), %fpn.inception.repeat.4.branch1.1.bn.num_batches_tracked : Long(requires_grad=0, device=cpu), %fpn.inception.repeat.4.branch2.0.conv.weight : Float(32, 320, 1, 1, strides=[320, 1, 1, 1], requires_grad=0, device=cpu), %fpn.inception.repeat.4.branch2.0.bn.weight : Float(32, strides=[1], requires_grad=0, device=cpu), %fpn.inception.repeat.4.branch2.0.bn.bias : Float(32, strides=[1], requires_grad=0, device=cpu), %fpn.inception.repeat.4.branch2.0.bn.running_mean : Float(32, strides=[1], requires_grad=0, device=cpu), %fpn.inception.repeat.4.branch2.0.bn.running_var : Float(32, strides=[1], requires_grad=0, device=cpu), %fpn.inception.repeat.4.branch2.0.bn.num_batches_tracked : Long(requires_grad=0, device=cpu), %fpn.inception.repeat.4.branch2.1.conv.weight : Float(48, 32, 3, 3, strides=[288, 9, 3, 1], requires_grad=0, device=cpu), %fpn.inception.repeat.4.branch2.1.bn.weight : Float(48, strides=[1], requires_grad=0, device=cpu), %fpn.inception.repeat.4.branch2.1.bn.bias : Float(48, strides=[1], requires_grad=0, device=cpu), %fpn.inception.repeat.4.branch2.1.bn.running_mean : Float(48, strides=[1], requires_grad=0, device=cpu), %fpn.inception.repeat.4.branch2.1.bn.running_var : Float(48, strides=[1], requires_grad=0, device=cpu), %fpn.inception.repeat.4.branch2.1.bn.num_batches_tracked : Long(requires_grad=0, device=cpu), %fpn.inception.repeat.4.branch2.2.conv.weight : Float(64, 48, 3, 3, strides=[432, 9, 3, 1], requires_grad=0, device=cpu), %fpn.inception.repeat.4.branch2.2.bn.weight : Float(64, strides=[1], requires_grad=0, device=cpu), %fpn.inception.repeat.4.branch2.2.bn.bias : Float(64, strides=[1], requires_grad=0, device=cpu), %fpn.inception.repeat.4.branch2.2.bn.running_mean : Float(64, strides=[1], requires_grad=0, device=cpu), %fpn.inception.repeat.4.branch2.2.bn.running_var : Float(64, strides=[1], requires_grad=0, device=cpu), %fpn.inception.repeat.4.branch2.2.bn.num_batches_tracked : Long(requires_grad=0, device=cpu), %fpn.inception.repeat.4.conv2d.weight : Float(320, 128, 1, 1, strides=[128, 1, 1, 1], requires_grad=0, device=cpu), %fpn.inception.repeat.4.conv2d.bias : Float(320, strides=[1], requires_grad=0, device=cpu), %fpn.inception.repeat.5.branch0.conv.weight : Float(32, 320, 1, 1, strides=[320, 1, 1, 1], requires_grad=0, device=cpu), %fpn.inception.repeat.5.branch0.bn.weight : Float(32, strides=[1], requires_grad=0, device=cpu), %fpn.inception.repeat.5.branch0.bn.bias : Float(32, strides=[1], requires_grad=0, device=cpu), %fpn.inception.repeat.5.branch0.bn.running_mean : Float(32, strides=[1], requires_grad=0, device=cpu), %fpn.inception.repeat.5.branch0.bn.running_var : Float(32, strides=[1], requires_grad=0, device=cpu), %fpn.inception.repeat.5.branch0.bn.num_batches_tracked : Long(requires_grad=0, device=cpu), %fpn.inception.repeat.5.branch1.0.conv.weight : Float(32, 320, 1, 1, strides=[320, 1, 1, 1], requires_grad=0, device=cpu), %fpn.inception.repeat.5.branch1.0.bn.weight : Float(32, strides=[1], requires_grad=0, device=cpu), %fpn.inception.repeat.5.branch1.0.bn.bias : Float(32, strides=[1], requires_grad=0, device=cpu), %fpn.inception.repeat.5.branch1.0.bn.running_mean : Float(32, strides=[1], requires_grad=0, device=cpu), %fpn.inception.repeat.5.branch1.0.bn.running_var : Float(32, strides=[1], requires_grad=0, device=cpu), %fpn.inception.repeat.5.branch1.0.bn.num_batches_tracked : Long(requires_grad=0, device=cpu), %fpn.inception.repeat.5.branch1.1.conv.weight : Float(32, 32, 3, 3, strides=[288, 9, 3, 1], requires_grad=0, device=cpu), %fpn.inception.repeat.5.branch1.1.bn.weight : Float(32, strides=[1], requires_grad=0, device=cpu), %fpn.inception.repeat.5.branch1.1.bn.bias : Float(32, strides=[1], requires_grad=0, device=cpu), %fpn.inception.repeat.5.branch1.1.bn.running_mean : Float(32, strides=[1], requires_grad=0, device=cpu), %fpn.inception.repeat.5.branch1.1.bn.running_var : Float(32, strides=[1], requires_grad=0, device=cpu), %fpn.inception.repeat.5.branch1.1.bn.num_batches_tracked : Long(requires_grad=0, device=cpu), %fpn.inception.repeat.5.branch2.0.conv.weight : Float(32, 320, 1, 1, strides=[320, 1, 1, 1], requires_grad=0, device=cpu), %fpn.inception.repeat.5.branch2.0.bn.weight : Float(32, strides=[1], requires_grad=0, device=cpu), %fpn.inception.repeat.5.branch2.0.bn.bias : Float(32, strides=[1], requires_grad=0, device=cpu), %fpn.inception.repeat.5.branch2.0.bn.running_mean : Float(32, strides=[1], requires_grad=0, device=cpu), %fpn.inception.repeat.5.branch2.0.bn.running_var : Float(32, strides=[1], requires_grad=0, device=cpu), %fpn.inception.repeat.5.branch2.0.bn.num_batches_tracked : Long(requires_grad=0, device=cpu), %fpn.inception.repeat.5.branch2.1.conv.weight : Float(48, 32, 3, 3, strides=[288, 9, 3, 1], requires_grad=0, device=cpu), %fpn.inception.repeat.5.branch2.1.bn.weight : Float(48, strides=[1], requires_grad=0, device=cpu), %fpn.inception.repeat.5.branch2.1.bn.bias : Float(48, strides=[1], requires_grad=0, device=cpu), %fpn.inception.repeat.5.branch2.1.bn.running_mean : Float(48, strides=[1], requires_grad=0, device=cpu), %fpn.inception.repeat.5.branch2.1.bn.running_var : Float(48, strides=[1], requires_grad=0, device=cpu), %fpn.inception.repeat.5.branch2.1.bn.num_batches_tracked : Long(requires_grad=0, device=cpu), %fpn.inception.repeat.5.branch2.2.conv.weight : Float(64, 48, 3, 3, strides=[432, 9, 3, 1], requires_grad=0, device=cpu), %fpn.inception.repeat.5.branch2.2.bn.weight : Float(64, strides=[1], requires_grad=0, device=cpu), %fpn.inception.repeat.5.branch2.2.bn.bias : Float(64, strides=[1], requires_grad=0, device=cpu), %fpn.inception.repeat.5.branch2.2.bn.running_mean : Float(64, strides=[1], requires_grad=0, device=cpu), %fpn.inception.repeat.5.branch2.2.bn.running_var : Float(64, strides=[1], requires_grad=0, device=cpu), %fpn.inception.repeat.5.branch2.2.bn.num_batches_tracked : Long(requires_grad=0, device=cpu), %fpn.inception.repeat.5.conv2d.weight : Float(320, 128, 1, 1, strides=[128, 1, 1, 1], requires_grad=0, device=cpu), %fpn.inception.repeat.5.conv2d.bias : Float(320, strides=[1], requires_grad=0, device=cpu), %fpn.inception.repeat.6.branch0.conv.weight : Float(32, 320, 1, 1, strides=[320, 1, 1, 1], requires_grad=0, device=cpu), %fpn.inception.repeat.6.branch0.bn.weight : Float(32, strides=[1], requires_grad=0, device=cpu), %fpn.inception.repeat.6.branch0.bn.bias : Float(32, strides=[1], requires_grad=0, device=cpu), %fpn.inception.repeat.6.branch0.bn.running_mean : Float(32, strides=[1], requires_grad=0, device=cpu), %fpn.inception.repeat.6.branch0.bn.running_var : Float(32, strides=[1], requires_grad=0, device=cpu), %fpn.inception.repeat.6.branch0.bn.num_batches_tracked : Long(requires_grad=0, device=cpu), %fpn.inception.repeat.6.branch1.0.conv.weight : Float(32, 320, 1, 1, strides=[320, 1, 1, 1], requires_grad=0, device=cpu), %fpn.inception.repeat.6.branch1.0.bn.weight : Float(32, strides=[1], requires_grad=0, device=cpu), %fpn.inception.repeat.6.branch1.0.bn.bias : Float(32, strides=[1], requires_grad=0, device=cpu), %fpn.inception.repeat.6.branch1.0.bn.running_mean : Float(32, strides=[1], requires_grad=0, device=cpu), %fpn.inception.repeat.6.branch1.0.bn.running_var : Float(32, strides=[1], requires_grad=0, device=cpu), %fpn.inception.repeat.6.branch1.0.bn.num_batches_tracked : Long(requires_grad=0, device=cpu), %fpn.inception.repeat.6.branch1.1.conv.weight : Float(32, 32, 3, 3, strides=[288, 9, 3, 1], requires_grad=0, device=cpu), %fpn.inception.repeat.6.branch1.1.bn.weight : Float(32, strides=[1], requires_grad=0, device=cpu), %fpn.inception.repeat.6.branch1.1.bn.bias : Float(32, strides=[1], requires_grad=0, device=cpu), %fpn.inception.repeat.6.branch1.1.bn.running_mean : Float(32, strides=[1], requires_grad=0, device=cpu), %fpn.inception.repeat.6.branch1.1.bn.running_var : Float(32, strides=[1], requires_grad=0, device=cpu), %fpn.inception.repeat.6.branch1.1.bn.num_batches_tracked : Long(requires_grad=0, device=cpu), %fpn.inception.repeat.6.branch2.0.conv.weight : Float(32, 320, 1, 1, strides=[320, 1, 1, 1], requires_grad=0, device=cpu), %fpn.inception.repeat.6.branch2.0.bn.weight : Float(32, strides=[1], requires_grad=0, device=cpu), %fpn.inception.repeat.6.branch2.0.bn.bias : Float(32, strides=[1], requires_grad=0, device=cpu), %fpn.inception.repeat.6.branch2.0.bn.running_mean : Float(32, strides=[1], requires_grad=0, device=cpu), %fpn.inception.repeat.6.branch2.0.bn.running_var : Float(32, strides=[1], requires_grad=0, device=cpu), %fpn.inception.repeat.6.branch2.0.bn.num_batches_tracked : Long(requires_grad=0, device=cpu), %fpn.inception.repeat.6.branch2.1.conv.weight : Float(48, 32, 3, 3, strides=[288, 9, 3, 1], requires_grad=0, device=cpu), %fpn.inception.repeat.6.branch2.1.bn.weight : Float(48, strides=[1], requires_grad=0, device=cpu), %fpn.inception.repeat.6.branch2.1.bn.bias : Float(48, strides=[1], requires_grad=0, device=cpu), %fpn.inception.repeat.6.branch2.1.bn.running_mean : Float(48, strides=[1], requires_grad=0, device=cpu), %fpn.inception.repeat.6.branch2.1.bn.running_var : Float(48, strides=[1], requires_grad=0, device=cpu), %fpn.inception.repeat.6.branch2.1.bn.num_batches_tracked : Long(requires_grad=0, device=cpu), %fpn.inception.repeat.6.branch2.2.conv.weight : Float(64, 48, 3, 3, strides=[432, 9, 3, 1], requires_grad=0, device=cpu), %fpn.inception.repeat.6.branch2.2.bn.weight : Float(64, strides=[1], requires_grad=0, device=cpu), %fpn.inception.repeat.6.branch2.2.bn.bias : Float(64, strides=[1], requires_grad=0, device=cpu), %fpn.inception.repeat.6.branch2.2.bn.running_mean : Float(64, strides=[1], requires_grad=0, device=cpu), %fpn.inception.repeat.6.branch2.2.bn.running_var : Float(64, strides=[1], requires_grad=0, device=cpu), %fpn.inception.repeat.6.branch2.2.bn.num_batches_tracked : Long(requires_grad=0, device=cpu), %fpn.inception.repeat.6.conv2d.weight : Float(320, 128, 1, 1, strides=[128, 1, 1, 1], requires_grad=0, device=cpu), %fpn.inception.repeat.6.conv2d.bias : Float(320, strides=[1], requires_grad=0, device=cpu), %fpn.inception.repeat.7.branch0.conv.weight : Float(32, 320, 1, 1, strides=[320, 1, 1, 1], requires_grad=0, device=cpu), %fpn.inception.repeat.7.branch0.bn.weight : Float(32, strides=[1], requires_grad=0, device=cpu), %fpn.inception.repeat.7.branch0.bn.bias : Float(32, strides=[1], requires_grad=0, device=cpu), %fpn.inception.repeat.7.branch0.bn.running_mean : Float(32, strides=[1], requires_grad=0, device=cpu), %fpn.inception.repeat.7.branch0.bn.running_var : Float(32, strides=[1], requires_grad=0, device=cpu), %fpn.inception.repeat.7.branch0.bn.num_batches_tracked : Long(requires_grad=0, device=cpu), %fpn.inception.repeat.7.branch1.0.conv.weight : Float(32, 320, 1, 1, strides=[320, 1, 1, 1], requires_grad=0, device=cpu), %fpn.inception.repeat.7.branch1.0.bn.weight : Float(32, strides=[1], requires_grad=0, device=cpu), %fpn.inception.repeat.7.branch1.0.bn.bias : Float(32, strides=[1], requires_grad=0, device=cpu), %fpn.inception.repeat.7.branch1.0.bn.running_mean : Float(32, strides=[1], requires_grad=0, device=cpu), %fpn.inception.repeat.7.branch1.0.bn.running_var : Float(32, strides=[1], requires_grad=0, device=cpu), %fpn.inception.repeat.7.branch1.0.bn.num_batches_tracked : Long(requires_grad=0, device=cpu), %fpn.inception.repeat.7.branch1.1.conv.weight : Float(32, 32, 3, 3, strides=[288, 9, 3, 1], requires_grad=0, device=cpu), %fpn.inception.repeat.7.branch1.1.bn.weight : Float(32, strides=[1], requires_grad=0, device=cpu), %fpn.inception.repeat.7.branch1.1.bn.bias : Float(32, strides=[1], requires_grad=0, device=cpu), %fpn.inception.repeat.7.branch1.1.bn.running_mean : Float(32, strides=[1], requires_grad=0, device=cpu), %fpn.inception.repeat.7.branch1.1.bn.running_var : Float(32, strides=[1], requires_grad=0, device=cpu), %fpn.inception.repeat.7.branch1.1.bn.num_batches_tracked : Long(requires_grad=0, device=cpu), %fpn.inception.repeat.7.branch2.0.conv.weight : Float(32, 320, 1, 1, strides=[320, 1, 1, 1], requires_grad=0, device=cpu), %fpn.inception.repeat.7.branch2.0.bn.weight : Float(32, strides=[1], requires_grad=0, device=cpu), %fpn.inception.repeat.7.branch2.0.bn.bias : Float(32, strides=[1], requires_grad=0, device=cpu), %fpn.inception.repeat.7.branch2.0.bn.running_mean : Float(32, strides=[1], requires_grad=0, device=cpu), %fpn.inception.repeat.7.branch2.0.bn.running_var : Float(32, strides=[1], requires_grad=0, device=cpu), %fpn.inception.repeat.7.branch2.0.bn.num_batches_tracked : Long(requires_grad=0, device=cpu), %fpn.inception.repeat.7.branch2.1.conv.weight : Float(48, 32, 3, 3, strides=[288, 9, 3, 1], requires_grad=0, device=cpu), %fpn.inception.repeat.7.branch2.1.bn.weight : Float(48, strides=[1], requires_grad=0, device=cpu), %fpn.inception.repeat.7.branch2.1.bn.bias : Float(48, strides=[1], requires_grad=0, device=cpu), %fpn.inception.repeat.7.branch2.1.bn.running_mean : Float(48, strides=[1], requires_grad=0, device=cpu), %fpn.inception.repeat.7.branch2.1.bn.running_var : Float(48, strides=[1], requires_grad=0, device=cpu), %fpn.inception.repeat.7.branch2.1.bn.num_batches_tracked : Long(requires_grad=0, device=cpu), %fpn.inception.repeat.7.branch2.2.conv.weight : Float(64, 48, 3, 3, strides=[432, 9, 3, 1], requires_grad=0, device=cpu), %fpn.inception.repeat.7.branch2.2.bn.weight : Float(64, strides=[1], requires_grad=0, device=cpu), %fpn.inception.repeat.7.branch2.2.bn.bias : Float(64, strides=[1], requires_grad=0, device=cpu), %fpn.inception.repeat.7.branch2.2.bn.running_mean : Float(64, strides=[1], requires_grad=0, device=cpu), %fpn.inception.repeat.7.branch2.2.bn.running_var : Float(64, strides=[1], requires_grad=0, device=cpu), %fpn.inception.repeat.7.branch2.2.bn.num_batches_tracked : Long(requires_grad=0, device=cpu), %fpn.inception.repeat.7.conv2d.weight : Float(320, 128, 1, 1, strides=[128, 1, 1, 1], requires_grad=0, device=cpu), %fpn.inception.repeat.7.conv2d.bias : Float(320, strides=[1], requires_grad=0, device=cpu), %fpn.inception.repeat.8.branch0.conv.weight : Float(32, 320, 1, 1, strides=[320, 1, 1, 1], requires_grad=0, device=cpu), %fpn.inception.repeat.8.branch0.bn.weight : Float(32, strides=[1], requires_grad=0, device=cpu), %fpn.inception.repeat.8.branch0.bn.bias : Float(32, strides=[1], requires_grad=0, device=cpu), %fpn.inception.repeat.8.branch0.bn.running_mean : Float(32, strides=[1], requires_grad=0, device=cpu), %fpn.inception.repeat.8.branch0.bn.running_var : Float(32, strides=[1], requires_grad=0, device=cpu), %fpn.inception.repeat.8.branch0.bn.num_batches_tracked : Long(requires_grad=0, device=cpu), %fpn.inception.repeat.8.branch1.0.conv.weight : Float(32, 320, 1, 1, strides=[320, 1, 1, 1], requires_grad=0, device=cpu), %fpn.inception.repeat.8.branch1.0.bn.weight : Float(32, strides=[1], requires_grad=0, device=cpu), %fpn.inception.repeat.8.branch1.0.bn.bias : Float(32, strides=[1], requires_grad=0, device=cpu), %fpn.inception.repeat.8.branch1.0.bn.running_mean : Float(32, strides=[1], requires_grad=0, device=cpu), %fpn.inception.repeat.8.branch1.0.bn.running_var : Float(32, strides=[1], requires_grad=0, device=cpu), %fpn.inception.repeat.8.branch1.0.bn.num_batches_tracked : Long(requires_grad=0, device=cpu), %fpn.inception.repeat.8.branch1.1.conv.weight : Float(32, 32, 3, 3, strides=[288, 9, 3, 1], requires_grad=0, device=cpu), %fpn.inception.repeat.8.branch1.1.bn.weight : Float(32, strides=[1], requires_grad=0, device=cpu), %fpn.inception.repeat.8.branch1.1.bn.bias : Float(32, strides=[1], requires_grad=0, device=cpu), %fpn.inception.repeat.8.branch1.1.bn.running_mean : Float(32, strides=[1], requires_grad=0, device=cpu), %fpn.inception.repeat.8.branch1.1.bn.running_var : Float(32, strides=[1], requires_grad=0, device=cpu), %fpn.inception.repeat.8.branch1.1.bn.num_batches_tracked : Long(requires_grad=0, device=cpu), %fpn.inception.repeat.8.branch2.0.conv.weight : Float(32, 320, 1, 1, strides=[320, 1, 1, 1], requires_grad=0, device=cpu), %fpn.inception.repeat.8.branch2.0.bn.weight : Float(32, strides=[1], requires_grad=0, device=cpu), %fpn.inception.repeat.8.branch2.0.bn.bias : Float(32, strides=[1], requires_grad=0, device=cpu), %fpn.inception.repeat.8.branch2.0.bn.running_mean : Float(32, strides=[1], requires_grad=0, device=cpu), %fpn.inception.repeat.8.branch2.0.bn.running_var : Float(32, strides=[1], requires_grad=0, device=cpu), %fpn.inception.repeat.8.branch2.0.bn.num_batches_tracked : Long(requires_grad=0, device=cpu), %fpn.inception.repeat.8.branch2.1.conv.weight : Float(48, 32, 3, 3, strides=[288, 9, 3, 1], requires_grad=0, device=cpu), %fpn.inception.repeat.8.branch2.1.bn.weight : Float(48, strides=[1], requires_grad=0, device=cpu), %fpn.inception.repeat.8.branch2.1.bn.bias : Float(48, strides=[1], requires_grad=0, device=cpu), %fpn.inception.repeat.8.branch2.1.bn.running_mean : Float(48, strides=[1], requires_grad=0, device=cpu), %fpn.inception.repeat.8.branch2.1.bn.running_var : Float(48, strides=[1], requires_grad=0, device=cpu), %fpn.inception.repeat.8.branch2.1.bn.num_batches_tracked : Long(requires_grad=0, device=cpu), %fpn.inception.repeat.8.branch2.2.conv.weight : Float(64, 48, 3, 3, strides=[432, 9, 3, 1], requires_grad=0, device=cpu), %fpn.inception.repeat.8.branch2.2.bn.weight : Float(64, strides=[1], requires_grad=0, device=cpu), %fpn.inception.repeat.8.branch2.2.bn.bias : Float(64, strides=[1], requires_grad=0, device=cpu), %fpn.inception.repeat.8.branch2.2.bn.running_mean : Float(64, strides=[1], requires_grad=0, device=cpu), %fpn.inception.repeat.8.branch2.2.bn.running_var : Float(64, strides=[1], requires_grad=0, device=cpu), %fpn.inception.repeat.8.branch2.2.bn.num_batches_tracked : Long(requires_grad=0, device=cpu), %fpn.inception.repeat.8.conv2d.weight : Float(320, 128, 1, 1, strides=[128, 1, 1, 1], requires_grad=0, device=cpu), %fpn.inception.repeat.8.conv2d.bias : Float(320, strides=[1], requires_grad=0, device=cpu), %fpn.inception.repeat.9.branch0.conv.weight : Float(32, 320, 1, 1, strides=[320, 1, 1, 1], requires_grad=0, device=cpu), %fpn.inception.repeat.9.branch0.bn.weight : Float(32, strides=[1], requires_grad=0, device=cpu), %fpn.inception.repeat.9.branch0.bn.bias : Float(32, strides=[1], requires_grad=0, device=cpu), %fpn.inception.repeat.9.branch0.bn.running_mean : Float(32, strides=[1], requires_grad=0, device=cpu), %fpn.inception.repeat.9.branch0.bn.running_var : Float(32, strides=[1], requires_grad=0, device=cpu), %fpn.inception.repeat.9.branch0.bn.num_batches_tracked : Long(requires_grad=0, device=cpu), %fpn.inception.repeat.9.branch1.0.conv.weight : Float(32, 320, 1, 1, strides=[320, 1, 1, 1], requires_grad=0, device=cpu), %fpn.inception.repeat.9.branch1.0.bn.weight : Float(32, strides=[1], requires_grad=0, device=cpu), %fpn.inception.repeat.9.branch1.0.bn.bias : Float(32, strides=[1], requires_grad=0, device=cpu), %fpn.inception.repeat.9.branch1.0.bn.running_mean : Float(32, strides=[1], requires_grad=0, device=cpu), %fpn.inception.repeat.9.branch1.0.bn.running_var : Float(32, strides=[1], requires_grad=0, device=cpu), %fpn.inception.repeat.9.branch1.0.bn.num_batches_tracked : Long(requires_grad=0, device=cpu), %fpn.inception.repeat.9.branch1.1.conv.weight : Float(32, 32, 3, 3, strides=[288, 9, 3, 1], requires_grad=0, device=cpu), %fpn.inception.repeat.9.branch1.1.bn.weight : Float(32, strides=[1], requires_grad=0, device=cpu), %fpn.inception.repeat.9.branch1.1.bn.bias : Float(32, strides=[1], requires_grad=0, device=cpu), %fpn.inception.repeat.9.branch1.1.bn.running_mean : Float(32, strides=[1], requires_grad=0, device=cpu), %fpn.inception.repeat.9.branch1.1.bn.running_var : Float(32, strides=[1], requires_grad=0, device=cpu), %fpn.inception.repeat.9.branch1.1.bn.num_batches_tracked : Long(requires_grad=0, device=cpu), %fpn.inception.repeat.9.branch2.0.conv.weight : Float(32, 320, 1, 1, strides=[320, 1, 1, 1], requires_grad=0, device=cpu), %fpn.inception.repeat.9.branch2.0.bn.weight : Float(32, strides=[1], requires_grad=0, device=cpu), %fpn.inception.repeat.9.branch2.0.bn.bias : Float(32, strides=[1], requires_grad=0, device=cpu), %fpn.inception.repeat.9.branch2.0.bn.running_mean : Float(32, strides=[1], requires_grad=0, device=cpu), %fpn.inception.repeat.9.branch2.0.bn.running_var : Float(32, strides=[1], requires_grad=0, device=cpu), %fpn.inception.repeat.9.branch2.0.bn.num_batches_tracked : Long(requires_grad=0, device=cpu), %fpn.inception.repeat.9.branch2.1.conv.weight : Float(48, 32, 3, 3, strides=[288, 9, 3, 1], requires_grad=0, device=cpu), %fpn.inception.repeat.9.branch2.1.bn.weight : Float(48, strides=[1], requires_grad=0, device=cpu), %fpn.inception.repeat.9.branch2.1.bn.bias : Float(48, strides=[1], requires_grad=0, device=cpu), %fpn.inception.repeat.9.branch2.1.bn.running_mean : Float(48, strides=[1], requires_grad=0, device=cpu), %fpn.inception.repeat.9.branch2.1.bn.running_var : Float(48, strides=[1], requires_grad=0, device=cpu), %fpn.inception.repeat.9.branch2.1.bn.num_batches_tracked : Long(requires_grad=0, device=cpu), %fpn.inception.repeat.9.branch2.2.conv.weight : Float(64, 48, 3, 3, strides=[432, 9, 3, 1], requires_grad=0, device=cpu), %fpn.inception.repeat.9.branch2.2.bn.weight : Float(64, strides=[1], requires_grad=0, device=cpu), %fpn.inception.repeat.9.branch2.2.bn.bias : Float(64, strides=[1], requires_grad=0, device=cpu), %fpn.inception.repeat.9.branch2.2.bn.running_mean : Float(64, strides=[1], requires_grad=0, device=cpu), %fpn.inception.repeat.9.branch2.2.bn.running_var : Float(64, strides=[1], requires_grad=0, device=cpu), %fpn.inception.repeat.9.branch2.2.bn.num_batches_tracked : Long(requires_grad=0, device=cpu), %fpn.inception.repeat.9.conv2d.weight : Float(320, 128, 1, 1, strides=[128, 1, 1, 1], requires_grad=0, device=cpu), %fpn.inception.repeat.9.conv2d.bias : Float(320, strides=[1], requires_grad=0, device=cpu), %fpn.inception.mixed_6a.branch0.conv.weight : Float(384, 320, 3, 3, strides=[2880, 9, 3, 1], requires_grad=0, device=cpu), %fpn.inception.mixed_6a.branch0.bn.weight : Float(384, strides=[1], requires_grad=0, device=cpu), %fpn.inception.mixed_6a.branch0.bn.bias : Float(384, strides=[1], requires_grad=0, device=cpu), %fpn.inception.mixed_6a.branch0.bn.running_mean : Float(384, strides=[1], requires_grad=0, device=cpu), %fpn.inception.mixed_6a.branch0.bn.running_var : Float(384, strides=[1], requires_grad=0, device=cpu), %fpn.inception.mixed_6a.branch0.bn.num_batches_tracked : Long(requires_grad=0, device=cpu), %fpn.inception.mixed_6a.branch1.0.conv.weight : Float(256, 320, 1, 1, strides=[320, 1, 1, 1], requires_grad=0, device=cpu), %fpn.inception.mixed_6a.branch1.0.bn.weight : Float(256, strides=[1], requires_grad=0, device=cpu), %fpn.inception.mixed_6a.branch1.0.bn.bias : Float(256, strides=[1], requires_grad=0, device=cpu), %fpn.inception.mixed_6a.branch1.0.bn.running_mean : Float(256, strides=[1], requires_grad=0, device=cpu), %fpn.inception.mixed_6a.branch1.0.bn.running_var : Float(256, strides=[1], requires_grad=0, device=cpu), %fpn.inception.mixed_6a.branch1.0.bn.num_batches_tracked : Long(requires_grad=0, device=cpu), %fpn.inception.mixed_6a.branch1.1.conv.weight : Float(256, 256, 3, 3, strides=[2304, 9, 3, 1], requires_grad=0, device=cpu), %fpn.inception.mixed_6a.branch1.1.bn.weight : Float(256, strides=[1], requires_grad=0, device=cpu), %fpn.inception.mixed_6a.branch1.1.bn.bias : Float(256, strides=[1], requires_grad=0, device=cpu), %fpn.inception.mixed_6a.branch1.1.bn.running_mean : Float(256, strides=[1], requires_grad=0, device=cpu), %fpn.inception.mixed_6a.branch1.1.bn.running_var : Float(256, strides=[1], requires_grad=0, device=cpu), %fpn.inception.mixed_6a.branch1.1.bn.num_batches_tracked : Long(requires_grad=0, device=cpu), %fpn.inception.mixed_6a.branch1.2.conv.weight : Float(384, 256, 3, 3, strides=[2304, 9, 3, 1], requires_grad=0, device=cpu), %fpn.inception.mixed_6a.branch1.2.bn.weight : Float(384, strides=[1], requires_grad=0, device=cpu), %fpn.inception.mixed_6a.branch1.2.bn.bias : Float(384, strides=[1], requires_grad=0, device=cpu), %fpn.inception.mixed_6a.branch1.2.bn.running_mean : Float(384, strides=[1], requires_grad=0, device=cpu), %fpn.inception.mixed_6a.branch1.2.bn.running_var : Float(384, strides=[1], requires_grad=0, device=cpu), %fpn.inception.mixed_6a.branch1.2.bn.num_batches_tracked : Long(requires_grad=0, device=cpu), %fpn.inception.repeat_1.0.branch0.conv.weight : Float(192, 1088, 1, 1, strides=[1088, 1, 1, 1], requires_grad=0, device=cpu), %fpn.inception.repeat_1.0.branch0.bn.weight : Float(192, strides=[1], requires_grad=0, device=cpu), %fpn.inception.repeat_1.0.branch0.bn.bias : Float(192, strides=[1], requires_grad=0, device=cpu), %fpn.inception.repeat_1.0.branch0.bn.running_mean : Float(192, strides=[1], requires_grad=0, device=cpu), %fpn.inception.repeat_1.0.branch0.bn.running_var : Float(192, strides=[1], requires_grad=0, device=cpu), %fpn.inception.repeat_1.0.branch0.bn.num_batches_tracked : Long(requires_grad=0, device=cpu), %fpn.inception.repeat_1.0.branch1.0.conv.weight : Float(128, 1088, 1, 1, strides=[1088, 1, 1, 1], requires_grad=0, device=cpu), %fpn.inception.repeat_1.0.branch1.0.bn.weight : Float(128, strides=[1], requires_grad=0, device=cpu), %fpn.inception.repeat_1.0.branch1.0.bn.bias : Float(128, strides=[1], requires_grad=0, device=cpu), %fpn.inception.repeat_1.0.branch1.0.bn.running_mean : Float(128, strides=[1], requires_grad=0, device=cpu), %fpn.inception.repeat_1.0.branch1.0.bn.running_var : Float(128, strides=[1], requires_grad=0, device=cpu), %fpn.inception.repeat_1.0.branch1.0.bn.num_batches_tracked : Long(requires_grad=0, device=cpu), %fpn.inception.repeat_1.0.branch1.1.conv.weight : Float(160, 128, 1, 7, strides=[896, 7, 7, 1], requires_grad=0, device=cpu), %fpn.inception.repeat_1.0.branch1.1.bn.weight : Float(160, strides=[1], requires_grad=0, device=cpu), %fpn.inception.repeat_1.0.branch1.1.bn.bias : Float(160, strides=[1], requires_grad=0, device=cpu), %fpn.inception.repeat_1.0.branch1.1.bn.running_mean : Float(160, strides=[1], requires_grad=0, device=cpu), %fpn.inception.repeat_1.0.branch1.1.bn.running_var : Float(160, strides=[1], requires_grad=0, device=cpu), %fpn.inception.repeat_1.0.branch1.1.bn.num_batches_tracked : Long(requires_grad=0, device=cpu), %fpn.inception.repeat_1.0.branch1.2.conv.weight : Float(192, 160, 7, 1, strides=[1120, 7, 1, 1], requires_grad=0, device=cpu), %fpn.inception.repeat_1.0.branch1.2.bn.weight : Float(192, strides=[1], requires_grad=0, device=cpu), %fpn.inception.repeat_1.0.branch1.2.bn.bias : Float(192, strides=[1], requires_grad=0, device=cpu), %fpn.inception.repeat_1.0.branch1.2.bn.running_mean : Float(192, strides=[1], requires_grad=0, device=cpu), %fpn.inception.repeat_1.0.branch1.2.bn.running_var : Float(192, strides=[1], requires_grad=0, device=cpu), %fpn.inception.repeat_1.0.branch1.2.bn.num_batches_tracked : Long(requires_grad=0, device=cpu), %fpn.inception.repeat_1.0.conv2d.weight : Float(1088, 384, 1, 1, strides=[384, 1, 1, 1], requires_grad=0, device=cpu), %fpn.inception.repeat_1.0.conv2d.bias : Float(1088, strides=[1], requires_grad=0, device=cpu), %fpn.inception.repeat_1.1.branch0.conv.weight : Float(192, 1088, 1, 1, strides=[1088, 1, 1, 1], requires_grad=0, device=cpu), %fpn.inception.repeat_1.1.branch0.bn.weight : Float(192, strides=[1], requires_grad=0, device=cpu), %fpn.inception.repeat_1.1.branch0.bn.bias : Float(192, strides=[1], requires_grad=0, device=cpu), %fpn.inception.repeat_1.1.branch0.bn.running_mean : Float(192, strides=[1], requires_grad=0, device=cpu), %fpn.inception.repeat_1.1.branch0.bn.running_var : Float(192, strides=[1], requires_grad=0, device=cpu), %fpn.inception.repeat_1.1.branch0.bn.num_batches_tracked : Long(requires_grad=0, device=cpu), %fpn.inception.repeat_1.1.branch1.0.conv.weight : Float(128, 1088, 1, 1, strides=[1088, 1, 1, 1], requires_grad=0, device=cpu), %fpn.inception.repeat_1.1.branch1.0.bn.weight : Float(128, strides=[1], requires_grad=0, device=cpu), %fpn.inception.repeat_1.1.branch1.0.bn.bias : Float(128, strides=[1], requires_grad=0, device=cpu), %fpn.inception.repeat_1.1.branch1.0.bn.running_mean : Float(128, strides=[1], requires_grad=0, device=cpu), %fpn.inception.repeat_1.1.branch1.0.bn.running_var : Float(128, strides=[1], requires_grad=0, device=cpu), %fpn.inception.repeat_1.1.branch1.0.bn.num_batches_tracked : Long(requires_grad=0, device=cpu), %fpn.inception.repeat_1.1.branch1.1.conv.weight : Float(160, 128, 1, 7, strides=[896, 7, 7, 1], requires_grad=0, device=cpu), %fpn.inception.repeat_1.1.branch1.1.bn.weight : Float(160, strides=[1], requires_grad=0, device=cpu), %fpn.inception.repeat_1.1.branch1.1.bn.bias : Float(160, strides=[1], requires_grad=0, device=cpu), %fpn.inception.repeat_1.1.branch1.1.bn.running_mean : Float(160, strides=[1], requires_grad=0, device=cpu), %fpn.inception.repeat_1.1.branch1.1.bn.running_var : Float(160, strides=[1], requires_grad=0, device=cpu), %fpn.inception.repeat_1.1.branch1.1.bn.num_batches_tracked : Long(requires_grad=0, device=cpu), %fpn.inception.repeat_1.1.branch1.2.conv.weight : Float(192, 160, 7, 1, strides=[1120, 7, 1, 1], requires_grad=0, device=cpu), %fpn.inception.repeat_1.1.branch1.2.bn.weight : Float(192, strides=[1], requires_grad=0, device=cpu), %fpn.inception.repeat_1.1.branch1.2.bn.bias : Float(192, strides=[1], requires_grad=0, device=cpu), %fpn.inception.repeat_1.1.branch1.2.bn.running_mean : Float(192, strides=[1], requires_grad=0, device=cpu), %fpn.inception.repeat_1.1.branch1.2.bn.running_var : Float(192, strides=[1], requires_grad=0, device=cpu), %fpn.inception.repeat_1.1.branch1.2.bn.num_batches_tracked : Long(requires_grad=0, device=cpu), %fpn.inception.repeat_1.1.conv2d.weight : Float(1088, 384, 1, 1, strides=[384, 1, 1, 1], requires_grad=0, device=cpu), %fpn.inception.repeat_1.1.conv2d.bias : Float(1088, strides=[1], requires_grad=0, device=cpu), %fpn.inception.repeat_1.2.branch0.conv.weight : Float(192, 1088, 1, 1, strides=[1088, 1, 1, 1], requires_grad=0, device=cpu), %fpn.inception.repeat_1.2.branch0.bn.weight : Float(192, strides=[1], requires_grad=0, device=cpu), %fpn.inception.repeat_1.2.branch0.bn.bias : Float(192, strides=[1], requires_grad=0, device=cpu), %fpn.inception.repeat_1.2.branch0.bn.running_mean : Float(192, strides=[1], requires_grad=0, device=cpu), %fpn.inception.repeat_1.2.branch0.bn.running_var : Float(192, strides=[1], requires_grad=0, device=cpu), %fpn.inception.repeat_1.2.branch0.bn.num_batches_tracked : Long(requires_grad=0, device=cpu), %fpn.inception.repeat_1.2.branch1.0.conv.weight : Float(128, 1088, 1, 1, strides=[1088, 1, 1, 1], requires_grad=0, device=cpu), %fpn.inception.repeat_1.2.branch1.0.bn.weight : Float(128, strides=[1], requires_grad=0, device=cpu), %fpn.inception.repeat_1.2.branch1.0.bn.bias : Float(128, strides=[1], requires_grad=0, device=cpu), %fpn.inception.repeat_1.2.branch1.0.bn.running_mean : Float(128, strides=[1], requires_grad=0, device=cpu), %fpn.inception.repeat_1.2.branch1.0.bn.running_var : Float(128, strides=[1], requires_grad=0, device=cpu), %fpn.inception.repeat_1.2.branch1.0.bn.num_batches_tracked : Long(requires_grad=0, device=cpu), %fpn.inception.repeat_1.2.branch1.1.conv.weight : Float(160, 128, 1, 7, strides=[896, 7, 7, 1], requires_grad=0, device=cpu), %fpn.inception.repeat_1.2.branch1.1.bn.weight : Float(160, strides=[1], requires_grad=0, device=cpu), %fpn.inception.repeat_1.2.branch1.1.bn.bias : Float(160, strides=[1], requires_grad=0, device=cpu), %fpn.inception.repeat_1.2.branch1.1.bn.running_mean : Float(160, strides=[1], requires_grad=0, device=cpu), %fpn.inception.repeat_1.2.branch1.1.bn.running_var : Float(160, strides=[1], requires_grad=0, device=cpu), %fpn.inception.repeat_1.2.branch1.1.bn.num_batches_tracked : Long(requires_grad=0, device=cpu), %fpn.inception.repeat_1.2.branch1.2.conv.weight : Float(192, 160, 7, 1, strides=[1120, 7, 1, 1], requires_grad=0, device=cpu), %fpn.inception.repeat_1.2.branch1.2.bn.weight : Float(192, strides=[1], requires_grad=0, device=cpu), %fpn.inception.repeat_1.2.branch1.2.bn.bias : Float(192, strides=[1], requires_grad=0, device=cpu), %fpn.inception.repeat_1.2.branch1.2.bn.running_mean : Float(192, strides=[1], requires_grad=0, device=cpu), %fpn.inception.repeat_1.2.branch1.2.bn.running_var : Float(192, strides=[1], requires_grad=0, device=cpu), %fpn.inception.repeat_1.2.branch1.2.bn.num_batches_tracked : Long(requires_grad=0, device=cpu), %fpn.inception.repeat_1.2.conv2d.weight : Float(1088, 384, 1, 1, strides=[384, 1, 1, 1], requires_grad=0, device=cpu), %fpn.inception.repeat_1.2.conv2d.bias : Float(1088, strides=[1], requires_grad=0, device=cpu), %fpn.inception.repeat_1.3.branch0.conv.weight : Float(192, 1088, 1, 1, strides=[1088, 1, 1, 1], requires_grad=0, device=cpu), %fpn.inception.repeat_1.3.branch0.bn.weight : Float(192, strides=[1], requires_grad=0, device=cpu), %fpn.inception.repeat_1.3.branch0.bn.bias : Float(192, strides=[1], requires_grad=0, device=cpu), %fpn.inception.repeat_1.3.branch0.bn.running_mean : Float(192, strides=[1], requires_grad=0, device=cpu), %fpn.inception.repeat_1.3.branch0.bn.running_var : Float(192, strides=[1], requires_grad=0, device=cpu), %fpn.inception.repeat_1.3.branch0.bn.num_batches_tracked : Long(requires_grad=0, device=cpu), %fpn.inception.repeat_1.3.branch1.0.conv.weight : Float(128, 1088, 1, 1, strides=[1088, 1, 1, 1], requires_grad=0, device=cpu), %fpn.inception.repeat_1.3.branch1.0.bn.weight : Float(128, strides=[1], requires_grad=0, device=cpu), %fpn.inception.repeat_1.3.branch1.0.bn.bias : Float(128, strides=[1], requires_grad=0, device=cpu), %fpn.inception.repeat_1.3.branch1.0.bn.running_mean : Float(128, strides=[1], requires_grad=0, device=cpu), %fpn.inception.repeat_1.3.branch1.0.bn.running_var : Float(128, strides=[1], requires_grad=0, device=cpu), %fpn.inception.repeat_1.3.branch1.0.bn.num_batches_tracked : Long(requires_grad=0, device=cpu), %fpn.inception.repeat_1.3.branch1.1.conv.weight : Float(160, 128, 1, 7, strides=[896, 7, 7, 1], requires_grad=0, device=cpu), %fpn.inception.repeat_1.3.branch1.1.bn.weight : Float(160, strides=[1], requires_grad=0, device=cpu), %fpn.inception.repeat_1.3.branch1.1.bn.bias : Float(160, strides=[1], requires_grad=0, device=cpu), %fpn.inception.repeat_1.3.branch1.1.bn.running_mean : Float(160, strides=[1], requires_grad=0, device=cpu), %fpn.inception.repeat_1.3.branch1.1.bn.running_var : Float(160, strides=[1], requires_grad=0, device=cpu), %fpn.inception.repeat_1.3.branch1.1.bn.num_batches_tracked : Long(requires_grad=0, device=cpu), %fpn.inception.repeat_1.3.branch1.2.conv.weight : Float(192, 160, 7, 1, strides=[1120, 7, 1, 1], requires_grad=0, device=cpu), %fpn.inception.repeat_1.3.branch1.2.bn.weight : Float(192, strides=[1], requires_grad=0, device=cpu), %fpn.inception.repeat_1.3.branch1.2.bn.bias : Float(192, strides=[1], requires_grad=0, device=cpu), %fpn.inception.repeat_1.3.branch1.2.bn.running_mean : Float(192, strides=[1], requires_grad=0, device=cpu), %fpn.inception.repeat_1.3.branch1.2.bn.running_var : Float(192, strides=[1], requires_grad=0, device=cpu), %fpn.inception.repeat_1.3.branch1.2.bn.num_batches_tracked : Long(requires_grad=0, device=cpu), %fpn.inception.repeat_1.3.conv2d.weight : Float(1088, 384, 1, 1, strides=[384, 1, 1, 1], requires_grad=0, device=cpu), %fpn.inception.repeat_1.3.conv2d.bias : Float(1088, strides=[1], requires_grad=0, device=cpu), %fpn.inception.repeat_1.4.branch0.conv.weight : Float(192, 1088, 1, 1, strides=[1088, 1, 1, 1], requires_grad=0, device=cpu), %fpn.inception.repeat_1.4.branch0.bn.weight : Float(192, strides=[1], requires_grad=0, device=cpu), %fpn.inception.repeat_1.4.branch0.bn.bias : Float(192, strides=[1], requires_grad=0, device=cpu), %fpn.inception.repeat_1.4.branch0.bn.running_mean : Float(192, strides=[1], requires_grad=0, device=cpu), %fpn.inception.repeat_1.4.branch0.bn.running_var : Float(192, strides=[1], requires_grad=0, device=cpu), %fpn.inception.repeat_1.4.branch0.bn.num_batches_tracked : Long(requires_grad=0, device=cpu), %fpn.inception.repeat_1.4.branch1.0.conv.weight : Float(128, 1088, 1, 1, strides=[1088, 1, 1, 1], requires_grad=0, device=cpu), %fpn.inception.repeat_1.4.branch1.0.bn.weight : Float(128, strides=[1], requires_grad=0, device=cpu), %fpn.inception.repeat_1.4.branch1.0.bn.bias : Float(128, strides=[1], requires_grad=0, device=cpu), %fpn.inception.repeat_1.4.branch1.0.bn.running_mean : Float(128, strides=[1], requires_grad=0, device=cpu), %fpn.inception.repeat_1.4.branch1.0.bn.running_var : Float(128, strides=[1], requires_grad=0, device=cpu), %fpn.inception.repeat_1.4.branch1.0.bn.num_batches_tracked : Long(requires_grad=0, device=cpu), %fpn.inception.repeat_1.4.branch1.1.conv.weight : Float(160, 128, 1, 7, strides=[896, 7, 7, 1], requires_grad=0, device=cpu), %fpn.inception.repeat_1.4.branch1.1.bn.weight : Float(160, strides=[1], requires_grad=0, device=cpu), %fpn.inception.repeat_1.4.branch1.1.bn.bias : Float(160, strides=[1], requires_grad=0, device=cpu), %fpn.inception.repeat_1.4.branch1.1.bn.running_mean : Float(160, strides=[1], requires_grad=0, device=cpu), %fpn.inception.repeat_1.4.branch1.1.bn.running_var : Float(160, strides=[1], requires_grad=0, device=cpu), %fpn.inception.repeat_1.4.branch1.1.bn.num_batches_tracked : Long(requires_grad=0, device=cpu), %fpn.inception.repeat_1.4.branch1.2.conv.weight : Float(192, 160, 7, 1, strides=[1120, 7, 1, 1], requires_grad=0, device=cpu), %fpn.inception.repeat_1.4.branch1.2.bn.weight : Float(192, strides=[1], requires_grad=0, device=cpu), %fpn.inception.repeat_1.4.branch1.2.bn.bias : Float(192, strides=[1], requires_grad=0, device=cpu), %fpn.inception.repeat_1.4.branch1.2.bn.running_mean : Float(192, strides=[1], requires_grad=0, device=cpu), %fpn.inception.repeat_1.4.branch1.2.bn.running_var : Float(192, strides=[1], requires_grad=0, device=cpu), %fpn.inception.repeat_1.4.branch1.2.bn.num_batches_tracked : Long(requires_grad=0, device=cpu), %fpn.inception.repeat_1.4.conv2d.weight : Float(1088, 384, 1, 1, strides=[384, 1, 1, 1], requires_grad=0, device=cpu), %fpn.inception.repeat_1.4.conv2d.bias : Float(1088, strides=[1], requires_grad=0, device=cpu), %fpn.inception.repeat_1.5.branch0.conv.weight : Float(192, 1088, 1, 1, strides=[1088, 1, 1, 1], requires_grad=0, device=cpu), %fpn.inception.repeat_1.5.branch0.bn.weight : Float(192, strides=[1], requires_grad=0, device=cpu), %fpn.inception.repeat_1.5.branch0.bn.bias : Float(192, strides=[1], requires_grad=0, device=cpu), %fpn.inception.repeat_1.5.branch0.bn.running_mean : Float(192, strides=[1], requires_grad=0, device=cpu), %fpn.inception.repeat_1.5.branch0.bn.running_var : Float(192, strides=[1], requires_grad=0, device=cpu), %fpn.inception.repeat_1.5.branch0.bn.num_batches_tracked : Long(requires_grad=0, device=cpu), %fpn.inception.repeat_1.5.branch1.0.conv.weight : Float(128, 1088, 1, 1, strides=[1088, 1, 1, 1], requires_grad=0, device=cpu), %fpn.inception.repeat_1.5.branch1.0.bn.weight : Float(128, strides=[1], requires_grad=0, device=cpu), %fpn.inception.repeat_1.5.branch1.0.bn.bias : Float(128, strides=[1], requires_grad=0, device=cpu), %fpn.inception.repeat_1.5.branch1.0.bn.running_mean : Float(128, strides=[1], requires_grad=0, device=cpu), %fpn.inception.repeat_1.5.branch1.0.bn.running_var : Float(128, strides=[1], requires_grad=0, device=cpu), %fpn.inception.repeat_1.5.branch1.0.bn.num_batches_tracked : Long(requires_grad=0, device=cpu), %fpn.inception.repeat_1.5.branch1.1.conv.weight : Float(160, 128, 1, 7, strides=[896, 7, 7, 1], requires_grad=0, device=cpu), %fpn.inception.repeat_1.5.branch1.1.bn.weight : Float(160, strides=[1], requires_grad=0, device=cpu), %fpn.inception.repeat_1.5.branch1.1.bn.bias : Float(160, strides=[1], requires_grad=0, device=cpu), %fpn.inception.repeat_1.5.branch1.1.bn.running_mean : Float(160, strides=[1], requires_grad=0, device=cpu), %fpn.inception.repeat_1.5.branch1.1.bn.running_var : Float(160, strides=[1], requires_grad=0, device=cpu), %fpn.inception.repeat_1.5.branch1.1.bn.num_batches_tracked : Long(requires_grad=0, device=cpu), %fpn.inception.repeat_1.5.branch1.2.conv.weight : Float(192, 160, 7, 1, strides=[1120, 7, 1, 1], requires_grad=0, device=cpu), %fpn.inception.repeat_1.5.branch1.2.bn.weight : Float(192, strides=[1], requires_grad=0, device=cpu), %fpn.inception.repeat_1.5.branch1.2.bn.bias : Float(192, strides=[1], requires_grad=0, device=cpu), %fpn.inception.repeat_1.5.branch1.2.bn.running_mean : Float(192, strides=[1], requires_grad=0, device=cpu), %fpn.inception.repeat_1.5.branch1.2.bn.running_var : Float(192, strides=[1], requires_grad=0, device=cpu), %fpn.inception.repeat_1.5.branch1.2.bn.num_batches_tracked : Long(requires_grad=0, device=cpu), %fpn.inception.repeat_1.5.conv2d.weight : Float(1088, 384, 1, 1, strides=[384, 1, 1, 1], requires_grad=0, device=cpu), %fpn.inception.repeat_1.5.conv2d.bias : Float(1088, strides=[1], requires_grad=0, device=cpu), %fpn.inception.repeat_1.6.branch0.conv.weight : Float(192, 1088, 1, 1, strides=[1088, 1, 1, 1], requires_grad=0, device=cpu), %fpn.inception.repeat_1.6.branch0.bn.weight : Float(192, strides=[1], requires_grad=0, device=cpu), %fpn.inception.repeat_1.6.branch0.bn.bias : Float(192, strides=[1], requires_grad=0, device=cpu), %fpn.inception.repeat_1.6.branch0.bn.running_mean : Float(192, strides=[1], requires_grad=0, device=cpu), %fpn.inception.repeat_1.6.branch0.bn.running_var : Float(192, strides=[1], requires_grad=0, device=cpu), %fpn.inception.repeat_1.6.branch0.bn.num_batches_tracked : Long(requires_grad=0, device=cpu), %fpn.inception.repeat_1.6.branch1.0.conv.weight : Float(128, 1088, 1, 1, strides=[1088, 1, 1, 1], requires_grad=0, device=cpu), %fpn.inception.repeat_1.6.branch1.0.bn.weight : Float(128, strides=[1], requires_grad=0, device=cpu), %fpn.inception.repeat_1.6.branch1.0.bn.bias : Float(128, strides=[1], requires_grad=0, device=cpu), %fpn.inception.repeat_1.6.branch1.0.bn.running_mean : Float(128, strides=[1], requires_grad=0, device=cpu), %fpn.inception.repeat_1.6.branch1.0.bn.running_var : Float(128, strides=[1], requires_grad=0, device=cpu), %fpn.inception.repeat_1.6.branch1.0.bn.num_batches_tracked : Long(requires_grad=0, device=cpu), %fpn.inception.repeat_1.6.branch1.1.conv.weight : Float(160, 128, 1, 7, strides=[896, 7, 7, 1], requires_grad=0, device=cpu), %fpn.inception.repeat_1.6.branch1.1.bn.weight : Float(160, strides=[1], requires_grad=0, device=cpu), %fpn.inception.repeat_1.6.branch1.1.bn.bias : Float(160, strides=[1], requires_grad=0, device=cpu), %fpn.inception.repeat_1.6.branch1.1.bn.running_mean : Float(160, strides=[1], requires_grad=0, device=cpu), %fpn.inception.repeat_1.6.branch1.1.bn.running_var : Float(160, strides=[1], requires_grad=0, device=cpu), %fpn.inception.repeat_1.6.branch1.1.bn.num_batches_tracked : Long(requires_grad=0, device=cpu), %fpn.inception.repeat_1.6.branch1.2.conv.weight : Float(192, 160, 7, 1, strides=[1120, 7, 1, 1], requires_grad=0, device=cpu), %fpn.inception.repeat_1.6.branch1.2.bn.weight : Float(192, strides=[1], requires_grad=0, device=cpu), %fpn.inception.repeat_1.6.branch1.2.bn.bias : Float(192, strides=[1], requires_grad=0, device=cpu), %fpn.inception.repeat_1.6.branch1.2.bn.running_mean : Float(192, strides=[1], requires_grad=0, device=cpu), %fpn.inception.repeat_1.6.branch1.2.bn.running_var : Float(192, strides=[1], requires_grad=0, device=cpu), %fpn.inception.repeat_1.6.branch1.2.bn.num_batches_tracked : Long(requires_grad=0, device=cpu), %fpn.inception.repeat_1.6.conv2d.weight : Float(1088, 384, 1, 1, strides=[384, 1, 1, 1], requires_grad=0, device=cpu), %fpn.inception.repeat_1.6.conv2d.bias : Float(1088, strides=[1], requires_grad=0, device=cpu), %fpn.inception.repeat_1.7.branch0.conv.weight : Float(192, 1088, 1, 1, strides=[1088, 1, 1, 1], requires_grad=0, device=cpu), %fpn.inception.repeat_1.7.branch0.bn.weight : Float(192, strides=[1], requires_grad=0, device=cpu), %fpn.inception.repeat_1.7.branch0.bn.bias : Float(192, strides=[1], requires_grad=0, device=cpu), %fpn.inception.repeat_1.7.branch0.bn.running_mean : Float(192, strides=[1], requires_grad=0, device=cpu), %fpn.inception.repeat_1.7.branch0.bn.running_var : Float(192, strides=[1], requires_grad=0, device=cpu), %fpn.inception.repeat_1.7.branch0.bn.num_batches_tracked : Long(requires_grad=0, device=cpu), %fpn.inception.repeat_1.7.branch1.0.conv.weight : Float(128, 1088, 1, 1, strides=[1088, 1, 1, 1], requires_grad=0, device=cpu), %fpn.inception.repeat_1.7.branch1.0.bn.weight : Float(128, strides=[1], requires_grad=0, device=cpu), %fpn.inception.repeat_1.7.branch1.0.bn.bias : Float(128, strides=[1], requires_grad=0, device=cpu), %fpn.inception.repeat_1.7.branch1.0.bn.running_mean : Float(128, strides=[1], requires_grad=0, device=cpu), %fpn.inception.repeat_1.7.branch1.0.bn.running_var : Float(128, strides=[1], requires_grad=0, device=cpu), %fpn.inception.repeat_1.7.branch1.0.bn.num_batches_tracked : Long(requires_grad=0, device=cpu), %fpn.inception.repeat_1.7.branch1.1.conv.weight : Float(160, 128, 1, 7, strides=[896, 7, 7, 1], requires_grad=0, device=cpu), %fpn.inception.repeat_1.7.branch1.1.bn.weight : Float(160, strides=[1], requires_grad=0, device=cpu), %fpn.inception.repeat_1.7.branch1.1.bn.bias : Float(160, strides=[1], requires_grad=0, device=cpu), %fpn.inception.repeat_1.7.branch1.1.bn.running_mean : Float(160, strides=[1], requires_grad=0, device=cpu), %fpn.inception.repeat_1.7.branch1.1.bn.running_var : Float(160, strides=[1], requires_grad=0, device=cpu), %fpn.inception.repeat_1.7.branch1.1.bn.num_batches_tracked : Long(requires_grad=0, device=cpu), %fpn.inception.repeat_1.7.branch1.2.conv.weight : Float(192, 160, 7, 1, strides=[1120, 7, 1, 1], requires_grad=0, device=cpu), %fpn.inception.repeat_1.7.branch1.2.bn.weight : Float(192, strides=[1], requires_grad=0, device=cpu), %fpn.inception.repeat_1.7.branch1.2.bn.bias : Float(192, strides=[1], requires_grad=0, device=cpu), %fpn.inception.repeat_1.7.branch1.2.bn.running_mean : Float(192, strides=[1], requires_grad=0, device=cpu), %fpn.inception.repeat_1.7.branch1.2.bn.running_var : Float(192, strides=[1], requires_grad=0, device=cpu), %fpn.inception.repeat_1.7.branch1.2.bn.num_batches_tracked : Long(requires_grad=0, device=cpu), %fpn.inception.repeat_1.7.conv2d.weight : Float(1088, 384, 1, 1, strides=[384, 1, 1, 1], requires_grad=0, device=cpu), %fpn.inception.repeat_1.7.conv2d.bias : Float(1088, strides=[1], requires_grad=0, device=cpu), %fpn.inception.repeat_1.8.branch0.conv.weight : Float(192, 1088, 1, 1, strides=[1088, 1, 1, 1], requires_grad=0, device=cpu), %fpn.inception.repeat_1.8.branch0.bn.weight : Float(192, strides=[1], requires_grad=0, device=cpu), %fpn.inception.repeat_1.8.branch0.bn.bias : Float(192, strides=[1], requires_grad=0, device=cpu), %fpn.inception.repeat_1.8.branch0.bn.running_mean : Float(192, strides=[1], requires_grad=0, device=cpu), %fpn.inception.repeat_1.8.branch0.bn.running_var : Float(192, strides=[1], requires_grad=0, device=cpu), %fpn.inception.repeat_1.8.branch0.bn.num_batches_tracked : Long(requires_grad=0, device=cpu), %fpn.inception.repeat_1.8.branch1.0.conv.weight : Float(128, 1088, 1, 1, strides=[1088, 1, 1, 1], requires_grad=0, device=cpu), %fpn.inception.repeat_1.8.branch1.0.bn.weight : Float(128, strides=[1], requires_grad=0, device=cpu), %fpn.inception.repeat_1.8.branch1.0.bn.bias : Float(128, strides=[1], requires_grad=0, device=cpu), %fpn.inception.repeat_1.8.branch1.0.bn.running_mean : Float(128, strides=[1], requires_grad=0, device=cpu), %fpn.inception.repeat_1.8.branch1.0.bn.running_var : Float(128, strides=[1], requires_grad=0, device=cpu), %fpn.inception.repeat_1.8.branch1.0.bn.num_batches_tracked : Long(requires_grad=0, device=cpu), %fpn.inception.repeat_1.8.branch1.1.conv.weight : Float(160, 128, 1, 7, strides=[896, 7, 7, 1], requires_grad=0, device=cpu), %fpn.inception.repeat_1.8.branch1.1.bn.weight : Float(160, strides=[1], requires_grad=0, device=cpu), %fpn.inception.repeat_1.8.branch1.1.bn.bias : Float(160, strides=[1], requires_grad=0, device=cpu), %fpn.inception.repeat_1.8.branch1.1.bn.running_mean : Float(160, strides=[1], requires_grad=0, device=cpu), %fpn.inception.repeat_1.8.branch1.1.bn.running_var : Float(160, strides=[1], requires_grad=0, device=cpu), %fpn.inception.repeat_1.8.branch1.1.bn.num_batches_tracked : Long(requires_grad=0, device=cpu), %fpn.inception.repeat_1.8.branch1.2.conv.weight : Float(192, 160, 7, 1, strides=[1120, 7, 1, 1], requires_grad=0, device=cpu), %fpn.inception.repeat_1.8.branch1.2.bn.weight : Float(192, strides=[1], requires_grad=0, device=cpu), %fpn.inception.repeat_1.8.branch1.2.bn.bias : Float(192, strides=[1], requires_grad=0, device=cpu), %fpn.inception.repeat_1.8.branch1.2.bn.running_mean : Float(192, strides=[1], requires_grad=0, device=cpu), %fpn.inception.repeat_1.8.branch1.2.bn.running_var : Float(192, strides=[1], requires_grad=0, device=cpu), %fpn.inception.repeat_1.8.branch1.2.bn.num_batches_tracked : Long(requires_grad=0, device=cpu), %fpn.inception.repeat_1.8.conv2d.weight : Float(1088, 384, 1, 1, strides=[384, 1, 1, 1], requires_grad=0, device=cpu), %fpn.inception.repeat_1.8.conv2d.bias : Float(1088, strides=[1], requires_grad=0, device=cpu), %fpn.inception.repeat_1.9.branch0.conv.weight : Float(192, 1088, 1, 1, strides=[1088, 1, 1, 1], requires_grad=0, device=cpu), %fpn.inception.repeat_1.9.branch0.bn.weight : Float(192, strides=[1], requires_grad=0, device=cpu), %fpn.inception.repeat_1.9.branch0.bn.bias : Float(192, strides=[1], requires_grad=0, device=cpu), %fpn.inception.repeat_1.9.branch0.bn.running_mean : Float(192, strides=[1], requires_grad=0, device=cpu), %fpn.inception.repeat_1.9.branch0.bn.running_var : Float(192, strides=[1], requires_grad=0, device=cpu), %fpn.inception.repeat_1.9.branch0.bn.num_batches_tracked : Long(requires_grad=0, device=cpu), %fpn.inception.repeat_1.9.branch1.0.conv.weight : Float(128, 1088, 1, 1, strides=[1088, 1, 1, 1], requires_grad=0, device=cpu), %fpn.inception.repeat_1.9.branch1.0.bn.weight : Float(128, strides=[1], requires_grad=0, device=cpu), %fpn.inception.repeat_1.9.branch1.0.bn.bias : Float(128, strides=[1], requires_grad=0, device=cpu), %fpn.inception.repeat_1.9.branch1.0.bn.running_mean : Float(128, strides=[1], requires_grad=0, device=cpu), %fpn.inception.repeat_1.9.branch1.0.bn.running_var : Float(128, strides=[1], requires_grad=0, device=cpu), %fpn.inception.repeat_1.9.branch1.0.bn.num_batches_tracked : Long(requires_grad=0, device=cpu), %fpn.inception.repeat_1.9.branch1.1.conv.weight : Float(160, 128, 1, 7, strides=[896, 7, 7, 1], requires_grad=0, device=cpu), %fpn.inception.repeat_1.9.branch1.1.bn.weight : Float(160, strides=[1], requires_grad=0, device=cpu), %fpn.inception.repeat_1.9.branch1.1.bn.bias : Float(160, strides=[1], requires_grad=0, device=cpu), %fpn.inception.repeat_1.9.branch1.1.bn.running_mean : Float(160, strides=[1], requires_grad=0, device=cpu), %fpn.inception.repeat_1.9.branch1.1.bn.running_var : Float(160, strides=[1], requires_grad=0, device=cpu), %fpn.inception.repeat_1.9.branch1.1.bn.num_batches_tracked : Long(requires_grad=0, device=cpu), %fpn.inception.repeat_1.9.branch1.2.conv.weight : Float(192, 160, 7, 1, strides=[1120, 7, 1, 1], requires_grad=0, device=cpu), %fpn.inception.repeat_1.9.branch1.2.bn.weight : Float(192, strides=[1], requires_grad=0, device=cpu), %fpn.inception.repeat_1.9.branch1.2.bn.bias : Float(192, strides=[1], requires_grad=0, device=cpu), %fpn.inception.repeat_1.9.branch1.2.bn.running_mean : Float(192, strides=[1], requires_grad=0, device=cpu), %fpn.inception.repeat_1.9.branch1.2.bn.running_var : Float(192, strides=[1], requires_grad=0, device=cpu), %fpn.inception.repeat_1.9.branch1.2.bn.num_batches_tracked : Long(requires_grad=0, device=cpu), %fpn.inception.repeat_1.9.conv2d.weight : Float(1088, 384, 1, 1, strides=[384, 1, 1, 1], requires_grad=0, device=cpu), %fpn.inception.repeat_1.9.conv2d.bias : Float(1088, strides=[1], requires_grad=0, device=cpu), %fpn.inception.repeat_1.10.branch0.conv.weight : Float(192, 1088, 1, 1, strides=[1088, 1, 1, 1], requires_grad=0, device=cpu), %fpn.inception.repeat_1.10.branch0.bn.weight : Float(192, strides=[1], requires_grad=0, device=cpu), %fpn.inception.repeat_1.10.branch0.bn.bias : Float(192, strides=[1], requires_grad=0, device=cpu), %fpn.inception.repeat_1.10.branch0.bn.running_mean : Float(192, strides=[1], requires_grad=0, device=cpu), %fpn.inception.repeat_1.10.branch0.bn.running_var : Float(192, strides=[1], requires_grad=0, device=cpu), %fpn.inception.repeat_1.10.branch0.bn.num_batches_tracked : Long(requires_grad=0, device=cpu), %fpn.inception.repeat_1.10.branch1.0.conv.weight : Float(128, 1088, 1, 1, strides=[1088, 1, 1, 1], requires_grad=0, device=cpu), %fpn.inception.repeat_1.10.branch1.0.bn.weight : Float(128, strides=[1], requires_grad=0, device=cpu), %fpn.inception.repeat_1.10.branch1.0.bn.bias : Float(128, strides=[1], requires_grad=0, device=cpu), %fpn.inception.repeat_1.10.branch1.0.bn.running_mean : Float(128, strides=[1], requires_grad=0, device=cpu), %fpn.inception.repeat_1.10.branch1.0.bn.running_var : Float(128, strides=[1], requires_grad=0, device=cpu), %fpn.inception.repeat_1.10.branch1.0.bn.num_batches_tracked : Long(requires_grad=0, device=cpu), %fpn.inception.repeat_1.10.branch1.1.conv.weight : Float(160, 128, 1, 7, strides=[896, 7, 7, 1], requires_grad=0, device=cpu), %fpn.inception.repeat_1.10.branch1.1.bn.weight : Float(160, strides=[1], requires_grad=0, device=cpu), %fpn.inception.repeat_1.10.branch1.1.bn.bias : Float(160, strides=[1], requires_grad=0, device=cpu), %fpn.inception.repeat_1.10.branch1.1.bn.running_mean : Float(160, strides=[1], requires_grad=0, device=cpu), %fpn.inception.repeat_1.10.branch1.1.bn.running_var : Float(160, strides=[1], requires_grad=0, device=cpu), %fpn.inception.repeat_1.10.branch1.1.bn.num_batches_tracked : Long(requires_grad=0, device=cpu), %fpn.inception.repeat_1.10.branch1.2.conv.weight : Float(192, 160, 7, 1, strides=[1120, 7, 1, 1], requires_grad=0, device=cpu), %fpn.inception.repeat_1.10.branch1.2.bn.weight : Float(192, strides=[1], requires_grad=0, device=cpu), %fpn.inception.repeat_1.10.branch1.2.bn.bias : Float(192, strides=[1], requires_grad=0, device=cpu), %fpn.inception.repeat_1.10.branch1.2.bn.running_mean : Float(192, strides=[1], requires_grad=0, device=cpu), %fpn.inception.repeat_1.10.branch1.2.bn.running_var : Float(192, strides=[1], requires_grad=0, device=cpu), %fpn.inception.repeat_1.10.branch1.2.bn.num_batches_tracked : Long(requires_grad=0, device=cpu), %fpn.inception.repeat_1.10.conv2d.weight : Float(1088, 384, 1, 1, strides=[384, 1, 1, 1], requires_grad=0, device=cpu), %fpn.inception.repeat_1.10.conv2d.bias : Float(1088, strides=[1], requires_grad=0, device=cpu), %fpn.inception.repeat_1.11.branch0.conv.weight : Float(192, 1088, 1, 1, strides=[1088, 1, 1, 1], requires_grad=0, device=cpu), %fpn.inception.repeat_1.11.branch0.bn.weight : Float(192, strides=[1], requires_grad=0, device=cpu), %fpn.inception.repeat_1.11.branch0.bn.bias : Float(192, strides=[1], requires_grad=0, device=cpu), %fpn.inception.repeat_1.11.branch0.bn.running_mean : Float(192, strides=[1], requires_grad=0, device=cpu), %fpn.inception.repeat_1.11.branch0.bn.running_var : Float(192, strides=[1], requires_grad=0, device=cpu), %fpn.inception.repeat_1.11.branch0.bn.num_batches_tracked : Long(requires_grad=0, device=cpu), %fpn.inception.repeat_1.11.branch1.0.conv.weight : Float(128, 1088, 1, 1, strides=[1088, 1, 1, 1], requires_grad=0, device=cpu), %fpn.inception.repeat_1.11.branch1.0.bn.weight : Float(128, strides=[1], requires_grad=0, device=cpu), %fpn.inception.repeat_1.11.branch1.0.bn.bias : Float(128, strides=[1], requires_grad=0, device=cpu), %fpn.inception.repeat_1.11.branch1.0.bn.running_mean : Float(128, strides=[1], requires_grad=0, device=cpu), %fpn.inception.repeat_1.11.branch1.0.bn.running_var : Float(128, strides=[1], requires_grad=0, device=cpu), %fpn.inception.repeat_1.11.branch1.0.bn.num_batches_tracked : Long(requires_grad=0, device=cpu), %fpn.inception.repeat_1.11.branch1.1.conv.weight : Float(160, 128, 1, 7, strides=[896, 7, 7, 1], requires_grad=0, device=cpu), %fpn.inception.repeat_1.11.branch1.1.bn.weight : Float(160, strides=[1], requires_grad=0, device=cpu), %fpn.inception.repeat_1.11.branch1.1.bn.bias : Float(160, strides=[1], requires_grad=0, device=cpu), %fpn.inception.repeat_1.11.branch1.1.bn.running_mean : Float(160, strides=[1], requires_grad=0, device=cpu), %fpn.inception.repeat_1.11.branch1.1.bn.running_var : Float(160, strides=[1], requires_grad=0, device=cpu), %fpn.inception.repeat_1.11.branch1.1.bn.num_batches_tracked : Long(requires_grad=0, device=cpu), %fpn.inception.repeat_1.11.branch1.2.conv.weight : Float(192, 160, 7, 1, strides=[1120, 7, 1, 1], requires_grad=0, device=cpu), %fpn.inception.repeat_1.11.branch1.2.bn.weight : Float(192, strides=[1], requires_grad=0, device=cpu), %fpn.inception.repeat_1.11.branch1.2.bn.bias : Float(192, strides=[1], requires_grad=0, device=cpu), %fpn.inception.repeat_1.11.branch1.2.bn.running_mean : Float(192, strides=[1], requires_grad=0, device=cpu), %fpn.inception.repeat_1.11.branch1.2.bn.running_var : Float(192, strides=[1], requires_grad=0, device=cpu), %fpn.inception.repeat_1.11.branch1.2.bn.num_batches_tracked : Long(requires_grad=0, device=cpu), %fpn.inception.repeat_1.11.conv2d.weight : Float(1088, 384, 1, 1, strides=[384, 1, 1, 1], requires_grad=0, device=cpu), %fpn.inception.repeat_1.11.conv2d.bias : Float(1088, strides=[1], requires_grad=0, device=cpu), %fpn.inception.repeat_1.12.branch0.conv.weight : Float(192, 1088, 1, 1, strides=[1088, 1, 1, 1], requires_grad=0, device=cpu), %fpn.inception.repeat_1.12.branch0.bn.weight : Float(192, strides=[1], requires_grad=0, device=cpu), %fpn.inception.repeat_1.12.branch0.bn.bias : Float(192, strides=[1], requires_grad=0, device=cpu), %fpn.inception.repeat_1.12.branch0.bn.running_mean : Float(192, strides=[1], requires_grad=0, device=cpu), %fpn.inception.repeat_1.12.branch0.bn.running_var : Float(192, strides=[1], requires_grad=0, device=cpu), %fpn.inception.repeat_1.12.branch0.bn.num_batches_tracked : Long(requires_grad=0, device=cpu), %fpn.inception.repeat_1.12.branch1.0.conv.weight : Float(128, 1088, 1, 1, strides=[1088, 1, 1, 1], requires_grad=0, device=cpu), %fpn.inception.repeat_1.12.branch1.0.bn.weight : Float(128, strides=[1], requires_grad=0, device=cpu), %fpn.inception.repeat_1.12.branch1.0.bn.bias : Float(128, strides=[1], requires_grad=0, device=cpu), %fpn.inception.repeat_1.12.branch1.0.bn.running_mean : Float(128, strides=[1], requires_grad=0, device=cpu), %fpn.inception.repeat_1.12.branch1.0.bn.running_var : Float(128, strides=[1], requires_grad=0, device=cpu), %fpn.inception.repeat_1.12.branch1.0.bn.num_batches_tracked : Long(requires_grad=0, device=cpu), %fpn.inception.repeat_1.12.branch1.1.conv.weight : Float(160, 128, 1, 7, strides=[896, 7, 7, 1], requires_grad=0, device=cpu), %fpn.inception.repeat_1.12.branch1.1.bn.weight : Float(160, strides=[1], requires_grad=0, device=cpu), %fpn.inception.repeat_1.12.branch1.1.bn.bias : Float(160, strides=[1], requires_grad=0, device=cpu), %fpn.inception.repeat_1.12.branch1.1.bn.running_mean : Float(160, strides=[1], requires_grad=0, device=cpu), %fpn.inception.repeat_1.12.branch1.1.bn.running_var : Float(160, strides=[1], requires_grad=0, device=cpu), %fpn.inception.repeat_1.12.branch1.1.bn.num_batches_tracked : Long(requires_grad=0, device=cpu), %fpn.inception.repeat_1.12.branch1.2.conv.weight : Float(192, 160, 7, 1, strides=[1120, 7, 1, 1], requires_grad=0, device=cpu), %fpn.inception.repeat_1.12.branch1.2.bn.weight : Float(192, strides=[1], requires_grad=0, device=cpu), %fpn.inception.repeat_1.12.branch1.2.bn.bias : Float(192, strides=[1], requires_grad=0, device=cpu), %fpn.inception.repeat_1.12.branch1.2.bn.running_mean : Float(192, strides=[1], requires_grad=0, device=cpu), %fpn.inception.repeat_1.12.branch1.2.bn.running_var : Float(192, strides=[1], requires_grad=0, device=cpu), %fpn.inception.repeat_1.12.branch1.2.bn.num_batches_tracked : Long(requires_grad=0, device=cpu), %fpn.inception.repeat_1.12.conv2d.weight : Float(1088, 384, 1, 1, strides=[384, 1, 1, 1], requires_grad=0, device=cpu), %fpn.inception.repeat_1.12.conv2d.bias : Float(1088, strides=[1], requires_grad=0, device=cpu), %fpn.inception.repeat_1.13.branch0.conv.weight : Float(192, 1088, 1, 1, strides=[1088, 1, 1, 1], requires_grad=0, device=cpu), %fpn.inception.repeat_1.13.branch0.bn.weight : Float(192, strides=[1], requires_grad=0, device=cpu), %fpn.inception.repeat_1.13.branch0.bn.bias : Float(192, strides=[1], requires_grad=0, device=cpu), %fpn.inception.repeat_1.13.branch0.bn.running_mean : Float(192, strides=[1], requires_grad=0, device=cpu), %fpn.inception.repeat_1.13.branch0.bn.running_var : Float(192, strides=[1], requires_grad=0, device=cpu), %fpn.inception.repeat_1.13.branch0.bn.num_batches_tracked : Long(requires_grad=0, device=cpu), %fpn.inception.repeat_1.13.branch1.0.conv.weight : Float(128, 1088, 1, 1, strides=[1088, 1, 1, 1], requires_grad=0, device=cpu), %fpn.inception.repeat_1.13.branch1.0.bn.weight : Float(128, strides=[1], requires_grad=0, device=cpu), %fpn.inception.repeat_1.13.branch1.0.bn.bias : Float(128, strides=[1], requires_grad=0, device=cpu), %fpn.inception.repeat_1.13.branch1.0.bn.running_mean : Float(128, strides=[1], requires_grad=0, device=cpu), %fpn.inception.repeat_1.13.branch1.0.bn.running_var : Float(128, strides=[1], requires_grad=0, device=cpu), %fpn.inception.repeat_1.13.branch1.0.bn.num_batches_tracked : Long(requires_grad=0, device=cpu), %fpn.inception.repeat_1.13.branch1.1.conv.weight : Float(160, 128, 1, 7, strides=[896, 7, 7, 1], requires_grad=0, device=cpu), %fpn.inception.repeat_1.13.branch1.1.bn.weight : Float(160, strides=[1], requires_grad=0, device=cpu), %fpn.inception.repeat_1.13.branch1.1.bn.bias : Float(160, strides=[1], requires_grad=0, device=cpu), %fpn.inception.repeat_1.13.branch1.1.bn.running_mean : Float(160, strides=[1], requires_grad=0, device=cpu), %fpn.inception.repeat_1.13.branch1.1.bn.running_var : Float(160, strides=[1], requires_grad=0, device=cpu), %fpn.inception.repeat_1.13.branch1.1.bn.num_batches_tracked : Long(requires_grad=0, device=cpu), %fpn.inception.repeat_1.13.branch1.2.conv.weight : Float(192, 160, 7, 1, strides=[1120, 7, 1, 1], requires_grad=0, device=cpu), %fpn.inception.repeat_1.13.branch1.2.bn.weight : Float(192, strides=[1], requires_grad=0, device=cpu), %fpn.inception.repeat_1.13.branch1.2.bn.bias : Float(192, strides=[1], requires_grad=0, device=cpu), %fpn.inception.repeat_1.13.branch1.2.bn.running_mean : Float(192, strides=[1], requires_grad=0, device=cpu), %fpn.inception.repeat_1.13.branch1.2.bn.running_var : Float(192, strides=[1], requires_grad=0, device=cpu), %fpn.inception.repeat_1.13.branch1.2.bn.num_batches_tracked : Long(requires_grad=0, device=cpu), %fpn.inception.repeat_1.13.conv2d.weight : Float(1088, 384, 1, 1, strides=[384, 1, 1, 1], requires_grad=0, device=cpu), %fpn.inception.repeat_1.13.conv2d.bias : Float(1088, strides=[1], requires_grad=0, device=cpu), %fpn.inception.repeat_1.14.branch0.conv.weight : Float(192, 1088, 1, 1, strides=[1088, 1, 1, 1], requires_grad=0, device=cpu), %fpn.inception.repeat_1.14.branch0.bn.weight : Float(192, strides=[1], requires_grad=0, device=cpu), %fpn.inception.repeat_1.14.branch0.bn.bias : Float(192, strides=[1], requires_grad=0, device=cpu), %fpn.inception.repeat_1.14.branch0.bn.running_mean : Float(192, strides=[1], requires_grad=0, device=cpu), %fpn.inception.repeat_1.14.branch0.bn.running_var : Float(192, strides=[1], requires_grad=0, device=cpu), %fpn.inception.repeat_1.14.branch0.bn.num_batches_tracked : Long(requires_grad=0, device=cpu), %fpn.inception.repeat_1.14.branch1.0.conv.weight : Float(128, 1088, 1, 1, strides=[1088, 1, 1, 1], requires_grad=0, device=cpu), %fpn.inception.repeat_1.14.branch1.0.bn.weight : Float(128, strides=[1], requires_grad=0, device=cpu), %fpn.inception.repeat_1.14.branch1.0.bn.bias : Float(128, strides=[1], requires_grad=0, device=cpu), %fpn.inception.repeat_1.14.branch1.0.bn.running_mean : Float(128, strides=[1], requires_grad=0, device=cpu), %fpn.inception.repeat_1.14.branch1.0.bn.running_var : Float(128, strides=[1], requires_grad=0, device=cpu), %fpn.inception.repeat_1.14.branch1.0.bn.num_batches_tracked : Long(requires_grad=0, device=cpu), %fpn.inception.repeat_1.14.branch1.1.conv.weight : Float(160, 128, 1, 7, strides=[896, 7, 7, 1], requires_grad=0, device=cpu), %fpn.inception.repeat_1.14.branch1.1.bn.weight : Float(160, strides=[1], requires_grad=0, device=cpu), %fpn.inception.repeat_1.14.branch1.1.bn.bias : Float(160, strides=[1], requires_grad=0, device=cpu), %fpn.inception.repeat_1.14.branch1.1.bn.running_mean : Float(160, strides=[1], requires_grad=0, device=cpu), %fpn.inception.repeat_1.14.branch1.1.bn.running_var : Float(160, strides=[1], requires_grad=0, device=cpu), %fpn.inception.repeat_1.14.branch1.1.bn.num_batches_tracked : Long(requires_grad=0, device=cpu), %fpn.inception.repeat_1.14.branch1.2.conv.weight : Float(192, 160, 7, 1, strides=[1120, 7, 1, 1], requires_grad=0, device=cpu), %fpn.inception.repeat_1.14.branch1.2.bn.weight : Float(192, strides=[1], requires_grad=0, device=cpu), %fpn.inception.repeat_1.14.branch1.2.bn.bias : Float(192, strides=[1], requires_grad=0, device=cpu), %fpn.inception.repeat_1.14.branch1.2.bn.running_mean : Float(192, strides=[1], requires_grad=0, device=cpu), %fpn.inception.repeat_1.14.branch1.2.bn.running_var : Float(192, strides=[1], requires_grad=0, device=cpu), %fpn.inception.repeat_1.14.branch1.2.bn.num_batches_tracked : Long(requires_grad=0, device=cpu), %fpn.inception.repeat_1.14.conv2d.weight : Float(1088, 384, 1, 1, strides=[384, 1, 1, 1], requires_grad=0, device=cpu), %fpn.inception.repeat_1.14.conv2d.bias : Float(1088, strides=[1], requires_grad=0, device=cpu), %fpn.inception.repeat_1.15.branch0.conv.weight : Float(192, 1088, 1, 1, strides=[1088, 1, 1, 1], requires_grad=0, device=cpu), %fpn.inception.repeat_1.15.branch0.bn.weight : Float(192, strides=[1], requires_grad=0, device=cpu), %fpn.inception.repeat_1.15.branch0.bn.bias : Float(192, strides=[1], requires_grad=0, device=cpu), %fpn.inception.repeat_1.15.branch0.bn.running_mean : Float(192, strides=[1], requires_grad=0, device=cpu), %fpn.inception.repeat_1.15.branch0.bn.running_var : Float(192, strides=[1], requires_grad=0, device=cpu), %fpn.inception.repeat_1.15.branch0.bn.num_batches_tracked : Long(requires_grad=0, device=cpu), %fpn.inception.repeat_1.15.branch1.0.conv.weight : Float(128, 1088, 1, 1, strides=[1088, 1, 1, 1], requires_grad=0, device=cpu), %fpn.inception.repeat_1.15.branch1.0.bn.weight : Float(128, strides=[1], requires_grad=0, device=cpu), %fpn.inception.repeat_1.15.branch1.0.bn.bias : Float(128, strides=[1], requires_grad=0, device=cpu), %fpn.inception.repeat_1.15.branch1.0.bn.running_mean : Float(128, strides=[1], requires_grad=0, device=cpu), %fpn.inception.repeat_1.15.branch1.0.bn.running_var : Float(128, strides=[1], requires_grad=0, device=cpu), %fpn.inception.repeat_1.15.branch1.0.bn.num_batches_tracked : Long(requires_grad=0, device=cpu), %fpn.inception.repeat_1.15.branch1.1.conv.weight : Float(160, 128, 1, 7, strides=[896, 7, 7, 1], requires_grad=0, device=cpu), %fpn.inception.repeat_1.15.branch1.1.bn.weight : Float(160, strides=[1], requires_grad=0, device=cpu), %fpn.inception.repeat_1.15.branch1.1.bn.bias : Float(160, strides=[1], requires_grad=0, device=cpu), %fpn.inception.repeat_1.15.branch1.1.bn.running_mean : Float(160, strides=[1], requires_grad=0, device=cpu), %fpn.inception.repeat_1.15.branch1.1.bn.running_var : Float(160, strides=[1], requires_grad=0, device=cpu), %fpn.inception.repeat_1.15.branch1.1.bn.num_batches_tracked : Long(requires_grad=0, device=cpu), %fpn.inception.repeat_1.15.branch1.2.conv.weight : Float(192, 160, 7, 1, strides=[1120, 7, 1, 1], requires_grad=0, device=cpu), %fpn.inception.repeat_1.15.branch1.2.bn.weight : Float(192, strides=[1], requires_grad=0, device=cpu), %fpn.inception.repeat_1.15.branch1.2.bn.bias : Float(192, strides=[1], requires_grad=0, device=cpu), %fpn.inception.repeat_1.15.branch1.2.bn.running_mean : Float(192, strides=[1], requires_grad=0, device=cpu), %fpn.inception.repeat_1.15.branch1.2.bn.running_var : Float(192, strides=[1], requires_grad=0, device=cpu), %fpn.inception.repeat_1.15.branch1.2.bn.num_batches_tracked : Long(requires_grad=0, device=cpu), %fpn.inception.repeat_1.15.conv2d.weight : Float(1088, 384, 1, 1, strides=[384, 1, 1, 1], requires_grad=0, device=cpu), %fpn.inception.repeat_1.15.conv2d.bias : Float(1088, strides=[1], requires_grad=0, device=cpu), %fpn.inception.repeat_1.16.branch0.conv.weight : Float(192, 1088, 1, 1, strides=[1088, 1, 1, 1], requires_grad=0, device=cpu), %fpn.inception.repeat_1.16.branch0.bn.weight : Float(192, strides=[1], requires_grad=0, device=cpu), %fpn.inception.repeat_1.16.branch0.bn.bias : Float(192, strides=[1], requires_grad=0, device=cpu), %fpn.inception.repeat_1.16.branch0.bn.running_mean : Float(192, strides=[1], requires_grad=0, device=cpu), %fpn.inception.repeat_1.16.branch0.bn.running_var : Float(192, strides=[1], requires_grad=0, device=cpu), %fpn.inception.repeat_1.16.branch0.bn.num_batches_tracked : Long(requires_grad=0, device=cpu), %fpn.inception.repeat_1.16.branch1.0.conv.weight : Float(128, 1088, 1, 1, strides=[1088, 1, 1, 1], requires_grad=0, device=cpu), %fpn.inception.repeat_1.16.branch1.0.bn.weight : Float(128, strides=[1], requires_grad=0, device=cpu), %fpn.inception.repeat_1.16.branch1.0.bn.bias : Float(128, strides=[1], requires_grad=0, device=cpu), %fpn.inception.repeat_1.16.branch1.0.bn.running_mean : Float(128, strides=[1], requires_grad=0, device=cpu), %fpn.inception.repeat_1.16.branch1.0.bn.running_var : Float(128, strides=[1], requires_grad=0, device=cpu), %fpn.inception.repeat_1.16.branch1.0.bn.num_batches_tracked : Long(requires_grad=0, device=cpu), %fpn.inception.repeat_1.16.branch1.1.conv.weight : Float(160, 128, 1, 7, strides=[896, 7, 7, 1], requires_grad=0, device=cpu), %fpn.inception.repeat_1.16.branch1.1.bn.weight : Float(160, strides=[1], requires_grad=0, device=cpu), %fpn.inception.repeat_1.16.branch1.1.bn.bias : Float(160, strides=[1], requires_grad=0, device=cpu), %fpn.inception.repeat_1.16.branch1.1.bn.running_mean : Float(160, strides=[1], requires_grad=0, device=cpu), %fpn.inception.repeat_1.16.branch1.1.bn.running_var : Float(160, strides=[1], requires_grad=0, device=cpu), %fpn.inception.repeat_1.16.branch1.1.bn.num_batches_tracked : Long(requires_grad=0, device=cpu), %fpn.inception.repeat_1.16.branch1.2.conv.weight : Float(192, 160, 7, 1, strides=[1120, 7, 1, 1], requires_grad=0, device=cpu), %fpn.inception.repeat_1.16.branch1.2.bn.weight : Float(192, strides=[1], requires_grad=0, device=cpu), %fpn.inception.repeat_1.16.branch1.2.bn.bias : Float(192, strides=[1], requires_grad=0, device=cpu), %fpn.inception.repeat_1.16.branch1.2.bn.running_mean : Float(192, strides=[1], requires_grad=0, device=cpu), %fpn.inception.repeat_1.16.branch1.2.bn.running_var : Float(192, strides=[1], requires_grad=0, device=cpu), %fpn.inception.repeat_1.16.branch1.2.bn.num_batches_tracked : Long(requires_grad=0, device=cpu), %fpn.inception.repeat_1.16.conv2d.weight : Float(1088, 384, 1, 1, strides=[384, 1, 1, 1], requires_grad=0, device=cpu), %fpn.inception.repeat_1.16.conv2d.bias : Float(1088, strides=[1], requires_grad=0, device=cpu), %fpn.inception.repeat_1.17.branch0.conv.weight : Float(192, 1088, 1, 1, strides=[1088, 1, 1, 1], requires_grad=0, device=cpu), %fpn.inception.repeat_1.17.branch0.bn.weight : Float(192, strides=[1], requires_grad=0, device=cpu), %fpn.inception.repeat_1.17.branch0.bn.bias : Float(192, strides=[1], requires_grad=0, device=cpu), %fpn.inception.repeat_1.17.branch0.bn.running_mean : Float(192, strides=[1], requires_grad=0, device=cpu), %fpn.inception.repeat_1.17.branch0.bn.running_var : Float(192, strides=[1], requires_grad=0, device=cpu), %fpn.inception.repeat_1.17.branch0.bn.num_batches_tracked : Long(requires_grad=0, device=cpu), %fpn.inception.repeat_1.17.branch1.0.conv.weight : Float(128, 1088, 1, 1, strides=[1088, 1, 1, 1], requires_grad=0, device=cpu), %fpn.inception.repeat_1.17.branch1.0.bn.weight : Float(128, strides=[1], requires_grad=0, device=cpu), %fpn.inception.repeat_1.17.branch1.0.bn.bias : Float(128, strides=[1], requires_grad=0, device=cpu), %fpn.inception.repeat_1.17.branch1.0.bn.running_mean : Float(128, strides=[1], requires_grad=0, device=cpu), %fpn.inception.repeat_1.17.branch1.0.bn.running_var : Float(128, strides=[1], requires_grad=0, device=cpu), %fpn.inception.repeat_1.17.branch1.0.bn.num_batches_tracked : Long(requires_grad=0, device=cpu), %fpn.inception.repeat_1.17.branch1.1.conv.weight : Float(160, 128, 1, 7, strides=[896, 7, 7, 1], requires_grad=0, device=cpu), %fpn.inception.repeat_1.17.branch1.1.bn.weight : Float(160, strides=[1], requires_grad=0, device=cpu), %fpn.inception.repeat_1.17.branch1.1.bn.bias : Float(160, strides=[1], requires_grad=0, device=cpu), %fpn.inception.repeat_1.17.branch1.1.bn.running_mean : Float(160, strides=[1], requires_grad=0, device=cpu), %fpn.inception.repeat_1.17.branch1.1.bn.running_var : Float(160, strides=[1], requires_grad=0, device=cpu), %fpn.inception.repeat_1.17.branch1.1.bn.num_batches_tracked : Long(requires_grad=0, device=cpu), %fpn.inception.repeat_1.17.branch1.2.conv.weight : Float(192, 160, 7, 1, strides=[1120, 7, 1, 1], requires_grad=0, device=cpu), %fpn.inception.repeat_1.17.branch1.2.bn.weight : Float(192, strides=[1], requires_grad=0, device=cpu), %fpn.inception.repeat_1.17.branch1.2.bn.bias : Float(192, strides=[1], requires_grad=0, device=cpu), %fpn.inception.repeat_1.17.branch1.2.bn.running_mean : Float(192, strides=[1], requires_grad=0, device=cpu), %fpn.inception.repeat_1.17.branch1.2.bn.running_var : Float(192, strides=[1], requires_grad=0, device=cpu), %fpn.inception.repeat_1.17.branch1.2.bn.num_batches_tracked : Long(requires_grad=0, device=cpu), %fpn.inception.repeat_1.17.conv2d.weight : Float(1088, 384, 1, 1, strides=[384, 1, 1, 1], requires_grad=0, device=cpu), %fpn.inception.repeat_1.17.conv2d.bias : Float(1088, strides=[1], requires_grad=0, device=cpu), %fpn.inception.repeat_1.18.branch0.conv.weight : Float(192, 1088, 1, 1, strides=[1088, 1, 1, 1], requires_grad=0, device=cpu), %fpn.inception.repeat_1.18.branch0.bn.weight : Float(192, strides=[1], requires_grad=0, device=cpu), %fpn.inception.repeat_1.18.branch0.bn.bias : Float(192, strides=[1], requires_grad=0, device=cpu), %fpn.inception.repeat_1.18.branch0.bn.running_mean : Float(192, strides=[1], requires_grad=0, device=cpu), %fpn.inception.repeat_1.18.branch0.bn.running_var : Float(192, strides=[1], requires_grad=0, device=cpu), %fpn.inception.repeat_1.18.branch0.bn.num_batches_tracked : Long(requires_grad=0, device=cpu), %fpn.inception.repeat_1.18.branch1.0.conv.weight : Float(128, 1088, 1, 1, strides=[1088, 1, 1, 1], requires_grad=0, device=cpu), %fpn.inception.repeat_1.18.branch1.0.bn.weight : Float(128, strides=[1], requires_grad=0, device=cpu), %fpn.inception.repeat_1.18.branch1.0.bn.bias : Float(128, strides=[1], requires_grad=0, device=cpu), %fpn.inception.repeat_1.18.branch1.0.bn.running_mean : Float(128, strides=[1], requires_grad=0, device=cpu), %fpn.inception.repeat_1.18.branch1.0.bn.running_var : Float(128, strides=[1], requires_grad=0, device=cpu), %fpn.inception.repeat_1.18.branch1.0.bn.num_batches_tracked : Long(requires_grad=0, device=cpu), %fpn.inception.repeat_1.18.branch1.1.conv.weight : Float(160, 128, 1, 7, strides=[896, 7, 7, 1], requires_grad=0, device=cpu), %fpn.inception.repeat_1.18.branch1.1.bn.weight : Float(160, strides=[1], requires_grad=0, device=cpu), %fpn.inception.repeat_1.18.branch1.1.bn.bias : Float(160, strides=[1], requires_grad=0, device=cpu), %fpn.inception.repeat_1.18.branch1.1.bn.running_mean : Float(160, strides=[1], requires_grad=0, device=cpu), %fpn.inception.repeat_1.18.branch1.1.bn.running_var : Float(160, strides=[1], requires_grad=0, device=cpu), %fpn.inception.repeat_1.18.branch1.1.bn.num_batches_tracked : Long(requires_grad=0, device=cpu), %fpn.inception.repeat_1.18.branch1.2.conv.weight : Float(192, 160, 7, 1, strides=[1120, 7, 1, 1], requires_grad=0, device=cpu), %fpn.inception.repeat_1.18.branch1.2.bn.weight : Float(192, strides=[1], requires_grad=0, device=cpu), %fpn.inception.repeat_1.18.branch1.2.bn.bias : Float(192, strides=[1], requires_grad=0, device=cpu), %fpn.inception.repeat_1.18.branch1.2.bn.running_mean : Float(192, strides=[1], requires_grad=0, device=cpu), %fpn.inception.repeat_1.18.branch1.2.bn.running_var : Float(192, strides=[1], requires_grad=0, device=cpu), %fpn.inception.repeat_1.18.branch1.2.bn.num_batches_tracked : Long(requires_grad=0, device=cpu), %fpn.inception.repeat_1.18.conv2d.weight : Float(1088, 384, 1, 1, strides=[384, 1, 1, 1], requires_grad=0, device=cpu), %fpn.inception.repeat_1.18.conv2d.bias : Float(1088, strides=[1], requires_grad=0, device=cpu), %fpn.inception.repeat_1.19.branch0.conv.weight : Float(192, 1088, 1, 1, strides=[1088, 1, 1, 1], requires_grad=0, device=cpu), %fpn.inception.repeat_1.19.branch0.bn.weight : Float(192, strides=[1], requires_grad=0, device=cpu), %fpn.inception.repeat_1.19.branch0.bn.bias : Float(192, strides=[1], requires_grad=0, device=cpu), %fpn.inception.repeat_1.19.branch0.bn.running_mean : Float(192, strides=[1], requires_grad=0, device=cpu), %fpn.inception.repeat_1.19.branch0.bn.running_var : Float(192, strides=[1], requires_grad=0, device=cpu), %fpn.inception.repeat_1.19.branch0.bn.num_batches_tracked : Long(requires_grad=0, device=cpu), %fpn.inception.repeat_1.19.branch1.0.conv.weight : Float(128, 1088, 1, 1, strides=[1088, 1, 1, 1], requires_grad=0, device=cpu), %fpn.inception.repeat_1.19.branch1.0.bn.weight : Float(128, strides=[1], requires_grad=0, device=cpu), %fpn.inception.repeat_1.19.branch1.0.bn.bias : Float(128, strides=[1], requires_grad=0, device=cpu), %fpn.inception.repeat_1.19.branch1.0.bn.running_mean : Float(128, strides=[1], requires_grad=0, device=cpu), %fpn.inception.repeat_1.19.branch1.0.bn.running_var : Float(128, strides=[1], requires_grad=0, device=cpu), %fpn.inception.repeat_1.19.branch1.0.bn.num_batches_tracked : Long(requires_grad=0, device=cpu), %fpn.inception.repeat_1.19.branch1.1.conv.weight : Float(160, 128, 1, 7, strides=[896, 7, 7, 1], requires_grad=0, device=cpu), %fpn.inception.repeat_1.19.branch1.1.bn.weight : Float(160, strides=[1], requires_grad=0, device=cpu), %fpn.inception.repeat_1.19.branch1.1.bn.bias : Float(160, strides=[1], requires_grad=0, device=cpu), %fpn.inception.repeat_1.19.branch1.1.bn.running_mean : Float(160, strides=[1], requires_grad=0, device=cpu), %fpn.inception.repeat_1.19.branch1.1.bn.running_var : Float(160, strides=[1], requires_grad=0, device=cpu), %fpn.inception.repeat_1.19.branch1.1.bn.num_batches_tracked : Long(requires_grad=0, device=cpu), %fpn.inception.repeat_1.19.branch1.2.conv.weight : Float(192, 160, 7, 1, strides=[1120, 7, 1, 1], requires_grad=0, device=cpu), %fpn.inception.repeat_1.19.branch1.2.bn.weight : Float(192, strides=[1], requires_grad=0, device=cpu), %fpn.inception.repeat_1.19.branch1.2.bn.bias : Float(192, strides=[1], requires_grad=0, device=cpu), %fpn.inception.repeat_1.19.branch1.2.bn.running_mean : Float(192, strides=[1], requires_grad=0, device=cpu), %fpn.inception.repeat_1.19.branch1.2.bn.running_var : Float(192, strides=[1], requires_grad=0, device=cpu), %fpn.inception.repeat_1.19.branch1.2.bn.num_batches_tracked : Long(requires_grad=0, device=cpu), %fpn.inception.repeat_1.19.conv2d.weight : Float(1088, 384, 1, 1, strides=[384, 1, 1, 1], requires_grad=0, device=cpu), %fpn.inception.repeat_1.19.conv2d.bias : Float(1088, strides=[1], requires_grad=0, device=cpu), %fpn.inception.mixed_7a.branch0.0.conv.weight : Float(256, 1088, 1, 1, strides=[1088, 1, 1, 1], requires_grad=0, device=cpu), %fpn.inception.mixed_7a.branch0.0.bn.weight : Float(256, strides=[1], requires_grad=0, device=cpu), %fpn.inception.mixed_7a.branch0.0.bn.bias : Float(256, strides=[1], requires_grad=0, device=cpu), %fpn.inception.mixed_7a.branch0.0.bn.running_mean : Float(256, strides=[1], requires_grad=0, device=cpu), %fpn.inception.mixed_7a.branch0.0.bn.running_var : Float(256, strides=[1], requires_grad=0, device=cpu), %fpn.inception.mixed_7a.branch0.0.bn.num_batches_tracked : Long(requires_grad=0, device=cpu), %fpn.inception.mixed_7a.branch0.1.conv.weight : Float(384, 256, 3, 3, strides=[2304, 9, 3, 1], requires_grad=0, device=cpu), %fpn.inception.mixed_7a.branch0.1.bn.weight : Float(384, strides=[1], requires_grad=0, device=cpu), %fpn.inception.mixed_7a.branch0.1.bn.bias : Float(384, strides=[1], requires_grad=0, device=cpu), %fpn.inception.mixed_7a.branch0.1.bn.running_mean : Float(384, strides=[1], requires_grad=0, device=cpu), %fpn.inception.mixed_7a.branch0.1.bn.running_var : Float(384, strides=[1], requires_grad=0, device=cpu), %fpn.inception.mixed_7a.branch0.1.bn.num_batches_tracked : Long(requires_grad=0, device=cpu), %fpn.inception.mixed_7a.branch1.0.conv.weight : Float(256, 1088, 1, 1, strides=[1088, 1, 1, 1], requires_grad=0, device=cpu), %fpn.inception.mixed_7a.branch1.0.bn.weight : Float(256, strides=[1], requires_grad=0, device=cpu), %fpn.inception.mixed_7a.branch1.0.bn.bias : Float(256, strides=[1], requires_grad=0, device=cpu), %fpn.inception.mixed_7a.branch1.0.bn.running_mean : Float(256, strides=[1], requires_grad=0, device=cpu), %fpn.inception.mixed_7a.branch1.0.bn.running_var : Float(256, strides=[1], requires_grad=0, device=cpu), %fpn.inception.mixed_7a.branch1.0.bn.num_batches_tracked : Long(requires_grad=0, device=cpu), %fpn.inception.mixed_7a.branch1.1.conv.weight : Float(288, 256, 3, 3, strides=[2304, 9, 3, 1], requires_grad=0, device=cpu), %fpn.inception.mixed_7a.branch1.1.bn.weight : Float(288, strides=[1], requires_grad=0, device=cpu), %fpn.inception.mixed_7a.branch1.1.bn.bias : Float(288, strides=[1], requires_grad=0, device=cpu), %fpn.inception.mixed_7a.branch1.1.bn.running_mean : Float(288, strides=[1], requires_grad=0, device=cpu), %fpn.inception.mixed_7a.branch1.1.bn.running_var : Float(288, strides=[1], requires_grad=0, device=cpu), %fpn.inception.mixed_7a.branch1.1.bn.num_batches_tracked : Long(requires_grad=0, device=cpu), %fpn.inception.mixed_7a.branch2.0.conv.weight : Float(256, 1088, 1, 1, strides=[1088, 1, 1, 1], requires_grad=0, device=cpu), %fpn.inception.mixed_7a.branch2.0.bn.weight : Float(256, strides=[1], requires_grad=0, device=cpu), %fpn.inception.mixed_7a.branch2.0.bn.bias : Float(256, strides=[1], requires_grad=0, device=cpu), %fpn.inception.mixed_7a.branch2.0.bn.running_mean : Float(256, strides=[1], requires_grad=0, device=cpu), %fpn.inception.mixed_7a.branch2.0.bn.running_var : Float(256, strides=[1], requires_grad=0, device=cpu), %fpn.inception.mixed_7a.branch2.0.bn.num_batches_tracked : Long(requires_grad=0, device=cpu), %fpn.inception.mixed_7a.branch2.1.conv.weight : Float(288, 256, 3, 3, strides=[2304, 9, 3, 1], requires_grad=0, device=cpu), %fpn.inception.mixed_7a.branch2.1.bn.weight : Float(288, strides=[1], requires_grad=0, device=cpu), %fpn.inception.mixed_7a.branch2.1.bn.bias : Float(288, strides=[1], requires_grad=0, device=cpu), %fpn.inception.mixed_7a.branch2.1.bn.running_mean : Float(288, strides=[1], requires_grad=0, device=cpu), %fpn.inception.mixed_7a.branch2.1.bn.running_var : Float(288, strides=[1], requires_grad=0, device=cpu), %fpn.inception.mixed_7a.branch2.1.bn.num_batches_tracked : Long(requires_grad=0, device=cpu), %fpn.inception.mixed_7a.branch2.2.conv.weight : Float(320, 288, 3, 3, strides=[2592, 9, 3, 1], requires_grad=0, device=cpu), %fpn.inception.mixed_7a.branch2.2.bn.weight : Float(320, strides=[1], requires_grad=0, device=cpu), %fpn.inception.mixed_7a.branch2.2.bn.bias : Float(320, strides=[1], requires_grad=0, device=cpu), %fpn.inception.mixed_7a.branch2.2.bn.running_mean : Float(320, strides=[1], requires_grad=0, device=cpu), %fpn.inception.mixed_7a.branch2.2.bn.running_var : Float(320, strides=[1], requires_grad=0, device=cpu), %fpn.inception.mixed_7a.branch2.2.bn.num_batches_tracked : Long(requires_grad=0, device=cpu), %fpn.inception.repeat_2.0.branch0.conv.weight : Float(192, 2080, 1, 1, strides=[2080, 1, 1, 1], requires_grad=0, device=cpu), %fpn.inception.repeat_2.0.branch0.bn.weight : Float(192, strides=[1], requires_grad=0, device=cpu), %fpn.inception.repeat_2.0.branch0.bn.bias : Float(192, strides=[1], requires_grad=0, device=cpu), %fpn.inception.repeat_2.0.branch0.bn.running_mean : Float(192, strides=[1], requires_grad=0, device=cpu), %fpn.inception.repeat_2.0.branch0.bn.running_var : Float(192, strides=[1], requires_grad=0, device=cpu), %fpn.inception.repeat_2.0.branch0.bn.num_batches_tracked : Long(requires_grad=0, device=cpu), %fpn.inception.repeat_2.0.branch1.0.conv.weight : Float(192, 2080, 1, 1, strides=[2080, 1, 1, 1], requires_grad=0, device=cpu), %fpn.inception.repeat_2.0.branch1.0.bn.weight : Float(192, strides=[1], requires_grad=0, device=cpu), %fpn.inception.repeat_2.0.branch1.0.bn.bias : Float(192, strides=[1], requires_grad=0, device=cpu), %fpn.inception.repeat_2.0.branch1.0.bn.running_mean : Float(192, strides=[1], requires_grad=0, device=cpu), %fpn.inception.repeat_2.0.branch1.0.bn.running_var : Float(192, strides=[1], requires_grad=0, device=cpu), %fpn.inception.repeat_2.0.branch1.0.bn.num_batches_tracked : Long(requires_grad=0, device=cpu), %fpn.inception.repeat_2.0.branch1.1.conv.weight : Float(224, 192, 1, 3, strides=[576, 3, 3, 1], requires_grad=0, device=cpu), %fpn.inception.repeat_2.0.branch1.1.bn.weight : Float(224, strides=[1], requires_grad=0, device=cpu), %fpn.inception.repeat_2.0.branch1.1.bn.bias : Float(224, strides=[1], requires_grad=0, device=cpu), %fpn.inception.repeat_2.0.branch1.1.bn.running_mean : Float(224, strides=[1], requires_grad=0, device=cpu), %fpn.inception.repeat_2.0.branch1.1.bn.running_var : Float(224, strides=[1], requires_grad=0, device=cpu), %fpn.inception.repeat_2.0.branch1.1.bn.num_batches_tracked : Long(requires_grad=0, device=cpu), %fpn.inception.repeat_2.0.branch1.2.conv.weight : Float(256, 224, 3, 1, strides=[672, 3, 1, 1], requires_grad=0, device=cpu), %fpn.inception.repeat_2.0.branch1.2.bn.weight : Float(256, strides=[1], requires_grad=0, device=cpu), %fpn.inception.repeat_2.0.branch1.2.bn.bias : Float(256, strides=[1], requires_grad=0, device=cpu), %fpn.inception.repeat_2.0.branch1.2.bn.running_mean : Float(256, strides=[1], requires_grad=0, device=cpu), %fpn.inception.repeat_2.0.branch1.2.bn.running_var : Float(256, strides=[1], requires_grad=0, device=cpu), %fpn.inception.repeat_2.0.branch1.2.bn.num_batches_tracked : Long(requires_grad=0, device=cpu), %fpn.inception.repeat_2.0.conv2d.weight : Float(2080, 448, 1, 1, strides=[448, 1, 1, 1], requires_grad=0, device=cpu), %fpn.inception.repeat_2.0.conv2d.bias : Float(2080, strides=[1], requires_grad=0, device=cpu), %fpn.inception.repeat_2.1.branch0.conv.weight : Float(192, 2080, 1, 1, strides=[2080, 1, 1, 1], requires_grad=0, device=cpu), %fpn.inception.repeat_2.1.branch0.bn.weight : Float(192, strides=[1], requires_grad=0, device=cpu), %fpn.inception.repeat_2.1.branch0.bn.bias : Float(192, strides=[1], requires_grad=0, device=cpu), %fpn.inception.repeat_2.1.branch0.bn.running_mean : Float(192, strides=[1], requires_grad=0, device=cpu), %fpn.inception.repeat_2.1.branch0.bn.running_var : Float(192, strides=[1], requires_grad=0, device=cpu), %fpn.inception.repeat_2.1.branch0.bn.num_batches_tracked : Long(requires_grad=0, device=cpu), %fpn.inception.repeat_2.1.branch1.0.conv.weight : Float(192, 2080, 1, 1, strides=[2080, 1, 1, 1], requires_grad=0, device=cpu), %fpn.inception.repeat_2.1.branch1.0.bn.weight : Float(192, strides=[1], requires_grad=0, device=cpu), %fpn.inception.repeat_2.1.branch1.0.bn.bias : Float(192, strides=[1], requires_grad=0, device=cpu), %fpn.inception.repeat_2.1.branch1.0.bn.running_mean : Float(192, strides=[1], requires_grad=0, device=cpu), %fpn.inception.repeat_2.1.branch1.0.bn.running_var : Float(192, strides=[1], requires_grad=0, device=cpu), %fpn.inception.repeat_2.1.branch1.0.bn.num_batches_tracked : Long(requires_grad=0, device=cpu), %fpn.inception.repeat_2.1.branch1.1.conv.weight : Float(224, 192, 1, 3, strides=[576, 3, 3, 1], requires_grad=0, device=cpu), %fpn.inception.repeat_2.1.branch1.1.bn.weight : Float(224, strides=[1], requires_grad=0, device=cpu), %fpn.inception.repeat_2.1.branch1.1.bn.bias : Float(224, strides=[1], requires_grad=0, device=cpu), %fpn.inception.repeat_2.1.branch1.1.bn.running_mean : Float(224, strides=[1], requires_grad=0, device=cpu), %fpn.inception.repeat_2.1.branch1.1.bn.running_var : Float(224, strides=[1], requires_grad=0, device=cpu), %fpn.inception.repeat_2.1.branch1.1.bn.num_batches_tracked : Long(requires_grad=0, device=cpu), %fpn.inception.repeat_2.1.branch1.2.conv.weight : Float(256, 224, 3, 1, strides=[672, 3, 1, 1], requires_grad=0, device=cpu), %fpn.inception.repeat_2.1.branch1.2.bn.weight : Float(256, strides=[1], requires_grad=0, device=cpu), %fpn.inception.repeat_2.1.branch1.2.bn.bias : Float(256, strides=[1], requires_grad=0, device=cpu), %fpn.inception.repeat_2.1.branch1.2.bn.running_mean : Float(256, strides=[1], requires_grad=0, device=cpu), %fpn.inception.repeat_2.1.branch1.2.bn.running_var : Float(256, strides=[1], requires_grad=0, device=cpu), %fpn.inception.repeat_2.1.branch1.2.bn.num_batches_tracked : Long(requires_grad=0, device=cpu), %fpn.inception.repeat_2.1.conv2d.weight : Float(2080, 448, 1, 1, strides=[448, 1, 1, 1], requires_grad=0, device=cpu), %fpn.inception.repeat_2.1.conv2d.bias : Float(2080, strides=[1], requires_grad=0, device=cpu), %fpn.inception.repeat_2.2.branch0.conv.weight : Float(192, 2080, 1, 1, strides=[2080, 1, 1, 1], requires_grad=0, device=cpu), %fpn.inception.repeat_2.2.branch0.bn.weight : Float(192, strides=[1], requires_grad=0, device=cpu), %fpn.inception.repeat_2.2.branch0.bn.bias : Float(192, strides=[1], requires_grad=0, device=cpu), %fpn.inception.repeat_2.2.branch0.bn.running_mean : Float(192, strides=[1], requires_grad=0, device=cpu), %fpn.inception.repeat_2.2.branch0.bn.running_var : Float(192, strides=[1], requires_grad=0, device=cpu), %fpn.inception.repeat_2.2.branch0.bn.num_batches_tracked : Long(requires_grad=0, device=cpu), %fpn.inception.repeat_2.2.branch1.0.conv.weight : Float(192, 2080, 1, 1, strides=[2080, 1, 1, 1], requires_grad=0, device=cpu), %fpn.inception.repeat_2.2.branch1.0.bn.weight : Float(192, strides=[1], requires_grad=0, device=cpu), %fpn.inception.repeat_2.2.branch1.0.bn.bias : Float(192, strides=[1], requires_grad=0, device=cpu), %fpn.inception.repeat_2.2.branch1.0.bn.running_mean : Float(192, strides=[1], requires_grad=0, device=cpu), %fpn.inception.repeat_2.2.branch1.0.bn.running_var : Float(192, strides=[1], requires_grad=0, device=cpu), %fpn.inception.repeat_2.2.branch1.0.bn.num_batches_tracked : Long(requires_grad=0, device=cpu), %fpn.inception.repeat_2.2.branch1.1.conv.weight : Float(224, 192, 1, 3, strides=[576, 3, 3, 1], requires_grad=0, device=cpu), %fpn.inception.repeat_2.2.branch1.1.bn.weight : Float(224, strides=[1], requires_grad=0, device=cpu), %fpn.inception.repeat_2.2.branch1.1.bn.bias : Float(224, strides=[1], requires_grad=0, device=cpu), %fpn.inception.repeat_2.2.branch1.1.bn.running_mean : Float(224, strides=[1], requires_grad=0, device=cpu), %fpn.inception.repeat_2.2.branch1.1.bn.running_var : Float(224, strides=[1], requires_grad=0, device=cpu), %fpn.inception.repeat_2.2.branch1.1.bn.num_batches_tracked : Long(requires_grad=0, device=cpu), %fpn.inception.repeat_2.2.branch1.2.conv.weight : Float(256, 224, 3, 1, strides=[672, 3, 1, 1], requires_grad=0, device=cpu), %fpn.inception.repeat_2.2.branch1.2.bn.weight : Float(256, strides=[1], requires_grad=0, device=cpu), %fpn.inception.repeat_2.2.branch1.2.bn.bias : Float(256, strides=[1], requires_grad=0, device=cpu), %fpn.inception.repeat_2.2.branch1.2.bn.running_mean : Float(256, strides=[1], requires_grad=0, device=cpu), %fpn.inception.repeat_2.2.branch1.2.bn.running_var : Float(256, strides=[1], requires_grad=0, device=cpu), %fpn.inception.repeat_2.2.branch1.2.bn.num_batches_tracked : Long(requires_grad=0, device=cpu), %fpn.inception.repeat_2.2.conv2d.weight : Float(2080, 448, 1, 1, strides=[448, 1, 1, 1], requires_grad=0, device=cpu), %fpn.inception.repeat_2.2.conv2d.bias : Float(2080, strides=[1], requires_grad=0, device=cpu), %fpn.inception.repeat_2.3.branch0.conv.weight : Float(192, 2080, 1, 1, strides=[2080, 1, 1, 1], requires_grad=0, device=cpu), %fpn.inception.repeat_2.3.branch0.bn.weight : Float(192, strides=[1], requires_grad=0, device=cpu), %fpn.inception.repeat_2.3.branch0.bn.bias : Float(192, strides=[1], requires_grad=0, device=cpu), %fpn.inception.repeat_2.3.branch0.bn.running_mean : Float(192, strides=[1], requires_grad=0, device=cpu), %fpn.inception.repeat_2.3.branch0.bn.running_var : Float(192, strides=[1], requires_grad=0, device=cpu), %fpn.inception.repeat_2.3.branch0.bn.num_batches_tracked : Long(requires_grad=0, device=cpu), %fpn.inception.repeat_2.3.branch1.0.conv.weight : Float(192, 2080, 1, 1, strides=[2080, 1, 1, 1], requires_grad=0, device=cpu), %fpn.inception.repeat_2.3.branch1.0.bn.weight : Float(192, strides=[1], requires_grad=0, device=cpu), %fpn.inception.repeat_2.3.branch1.0.bn.bias : Float(192, strides=[1], requires_grad=0, device=cpu), %fpn.inception.repeat_2.3.branch1.0.bn.running_mean : Float(192, strides=[1], requires_grad=0, device=cpu), %fpn.inception.repeat_2.3.branch1.0.bn.running_var : Float(192, strides=[1], requires_grad=0, device=cpu), %fpn.inception.repeat_2.3.branch1.0.bn.num_batches_tracked : Long(requires_grad=0, device=cpu), %fpn.inception.repeat_2.3.branch1.1.conv.weight : Float(224, 192, 1, 3, strides=[576, 3, 3, 1], requires_grad=0, device=cpu), %fpn.inception.repeat_2.3.branch1.1.bn.weight : Float(224, strides=[1], requires_grad=0, device=cpu), %fpn.inception.repeat_2.3.branch1.1.bn.bias : Float(224, strides=[1], requires_grad=0, device=cpu), %fpn.inception.repeat_2.3.branch1.1.bn.running_mean : Float(224, strides=[1], requires_grad=0, device=cpu), %fpn.inception.repeat_2.3.branch1.1.bn.running_var : Float(224, strides=[1], requires_grad=0, device=cpu), %fpn.inception.repeat_2.3.branch1.1.bn.num_batches_tracked : Long(requires_grad=0, device=cpu), %fpn.inception.repeat_2.3.branch1.2.conv.weight : Float(256, 224, 3, 1, strides=[672, 3, 1, 1], requires_grad=0, device=cpu), %fpn.inception.repeat_2.3.branch1.2.bn.weight : Float(256, strides=[1], requires_grad=0, device=cpu), %fpn.inception.repeat_2.3.branch1.2.bn.bias : Float(256, strides=[1], requires_grad=0, device=cpu), %fpn.inception.repeat_2.3.branch1.2.bn.running_mean : Float(256, strides=[1], requires_grad=0, device=cpu), %fpn.inception.repeat_2.3.branch1.2.bn.running_var : Float(256, strides=[1], requires_grad=0, device=cpu), %fpn.inception.repeat_2.3.branch1.2.bn.num_batches_tracked : Long(requires_grad=0, device=cpu), %fpn.inception.repeat_2.3.conv2d.weight : Float(2080, 448, 1, 1, strides=[448, 1, 1, 1], requires_grad=0, device=cpu), %fpn.inception.repeat_2.3.conv2d.bias : Float(2080, strides=[1], requires_grad=0, device=cpu), %fpn.inception.repeat_2.4.branch0.conv.weight : Float(192, 2080, 1, 1, strides=[2080, 1, 1, 1], requires_grad=0, device=cpu), %fpn.inception.repeat_2.4.branch0.bn.weight : Float(192, strides=[1], requires_grad=0, device=cpu), %fpn.inception.repeat_2.4.branch0.bn.bias : Float(192, strides=[1], requires_grad=0, device=cpu), %fpn.inception.repeat_2.4.branch0.bn.running_mean : Float(192, strides=[1], requires_grad=0, device=cpu), %fpn.inception.repeat_2.4.branch0.bn.running_var : Float(192, strides=[1], requires_grad=0, device=cpu), %fpn.inception.repeat_2.4.branch0.bn.num_batches_tracked : Long(requires_grad=0, device=cpu), %fpn.inception.repeat_2.4.branch1.0.conv.weight : Float(192, 2080, 1, 1, strides=[2080, 1, 1, 1], requires_grad=0, device=cpu), %fpn.inception.repeat_2.4.branch1.0.bn.weight : Float(192, strides=[1], requires_grad=0, device=cpu), %fpn.inception.repeat_2.4.branch1.0.bn.bias : Float(192, strides=[1], requires_grad=0, device=cpu), %fpn.inception.repeat_2.4.branch1.0.bn.running_mean : Float(192, strides=[1], requires_grad=0, device=cpu), %fpn.inception.repeat_2.4.branch1.0.bn.running_var : Float(192, strides=[1], requires_grad=0, device=cpu), %fpn.inception.repeat_2.4.branch1.0.bn.num_batches_tracked : Long(requires_grad=0, device=cpu), %fpn.inception.repeat_2.4.branch1.1.conv.weight : Float(224, 192, 1, 3, strides=[576, 3, 3, 1], requires_grad=0, device=cpu), %fpn.inception.repeat_2.4.branch1.1.bn.weight : Float(224, strides=[1], requires_grad=0, device=cpu), %fpn.inception.repeat_2.4.branch1.1.bn.bias : Float(224, strides=[1], requires_grad=0, device=cpu), %fpn.inception.repeat_2.4.branch1.1.bn.running_mean : Float(224, strides=[1], requires_grad=0, device=cpu), %fpn.inception.repeat_2.4.branch1.1.bn.running_var : Float(224, strides=[1], requires_grad=0, device=cpu), %fpn.inception.repeat_2.4.branch1.1.bn.num_batches_tracked : Long(requires_grad=0, device=cpu), %fpn.inception.repeat_2.4.branch1.2.conv.weight : Float(256, 224, 3, 1, strides=[672, 3, 1, 1], requires_grad=0, device=cpu), %fpn.inception.repeat_2.4.branch1.2.bn.weight : Float(256, strides=[1], requires_grad=0, device=cpu), %fpn.inception.repeat_2.4.branch1.2.bn.bias : Float(256, strides=[1], requires_grad=0, device=cpu), %fpn.inception.repeat_2.4.branch1.2.bn.running_mean : Float(256, strides=[1], requires_grad=0, device=cpu), %fpn.inception.repeat_2.4.branch1.2.bn.running_var : Float(256, strides=[1], requires_grad=0, device=cpu), %fpn.inception.repeat_2.4.branch1.2.bn.num_batches_tracked : Long(requires_grad=0, device=cpu), %fpn.inception.repeat_2.4.conv2d.weight : Float(2080, 448, 1, 1, strides=[448, 1, 1, 1], requires_grad=0, device=cpu), %fpn.inception.repeat_2.4.conv2d.bias : Float(2080, strides=[1], requires_grad=0, device=cpu), %fpn.inception.repeat_2.5.branch0.conv.weight : Float(192, 2080, 1, 1, strides=[2080, 1, 1, 1], requires_grad=0, device=cpu), %fpn.inception.repeat_2.5.branch0.bn.weight : Float(192, strides=[1], requires_grad=0, device=cpu), %fpn.inception.repeat_2.5.branch0.bn.bias : Float(192, strides=[1], requires_grad=0, device=cpu), %fpn.inception.repeat_2.5.branch0.bn.running_mean : Float(192, strides=[1], requires_grad=0, device=cpu), %fpn.inception.repeat_2.5.branch0.bn.running_var : Float(192, strides=[1], requires_grad=0, device=cpu), %fpn.inception.repeat_2.5.branch0.bn.num_batches_tracked : Long(requires_grad=0, device=cpu), %fpn.inception.repeat_2.5.branch1.0.conv.weight : Float(192, 2080, 1, 1, strides=[2080, 1, 1, 1], requires_grad=0, device=cpu), %fpn.inception.repeat_2.5.branch1.0.bn.weight : Float(192, strides=[1], requires_grad=0, device=cpu), %fpn.inception.repeat_2.5.branch1.0.bn.bias : Float(192, strides=[1], requires_grad=0, device=cpu), %fpn.inception.repeat_2.5.branch1.0.bn.running_mean : Float(192, strides=[1], requires_grad=0, device=cpu), %fpn.inception.repeat_2.5.branch1.0.bn.running_var : Float(192, strides=[1], requires_grad=0, device=cpu), %fpn.inception.repeat_2.5.branch1.0.bn.num_batches_tracked : Long(requires_grad=0, device=cpu), %fpn.inception.repeat_2.5.branch1.1.conv.weight : Float(224, 192, 1, 3, strides=[576, 3, 3, 1], requires_grad=0, device=cpu), %fpn.inception.repeat_2.5.branch1.1.bn.weight : Float(224, strides=[1], requires_grad=0, device=cpu), %fpn.inception.repeat_2.5.branch1.1.bn.bias : Float(224, strides=[1], requires_grad=0, device=cpu), %fpn.inception.repeat_2.5.branch1.1.bn.running_mean : Float(224, strides=[1], requires_grad=0, device=cpu), %fpn.inception.repeat_2.5.branch1.1.bn.running_var : Float(224, strides=[1], requires_grad=0, device=cpu), %fpn.inception.repeat_2.5.branch1.1.bn.num_batches_tracked : Long(requires_grad=0, device=cpu), %fpn.inception.repeat_2.5.branch1.2.conv.weight : Float(256, 224, 3, 1, strides=[672, 3, 1, 1], requires_grad=0, device=cpu), %fpn.inception.repeat_2.5.branch1.2.bn.weight : Float(256, strides=[1], requires_grad=0, device=cpu), %fpn.inception.repeat_2.5.branch1.2.bn.bias : Float(256, strides=[1], requires_grad=0, device=cpu), %fpn.inception.repeat_2.5.branch1.2.bn.running_mean : Float(256, strides=[1], requires_grad=0, device=cpu), %fpn.inception.repeat_2.5.branch1.2.bn.running_var : Float(256, strides=[1], requires_grad=0, device=cpu), %fpn.inception.repeat_2.5.branch1.2.bn.num_batches_tracked : Long(requires_grad=0, device=cpu), %fpn.inception.repeat_2.5.conv2d.weight : Float(2080, 448, 1, 1, strides=[448, 1, 1, 1], requires_grad=0, device=cpu), %fpn.inception.repeat_2.5.conv2d.bias : Float(2080, strides=[1], requires_grad=0, device=cpu), %fpn.inception.repeat_2.6.branch0.conv.weight : Float(192, 2080, 1, 1, strides=[2080, 1, 1, 1], requires_grad=0, device=cpu), %fpn.inception.repeat_2.6.branch0.bn.weight : Float(192, strides=[1], requires_grad=0, device=cpu), %fpn.inception.repeat_2.6.branch0.bn.bias : Float(192, strides=[1], requires_grad=0, device=cpu), %fpn.inception.repeat_2.6.branch0.bn.running_mean : Float(192, strides=[1], requires_grad=0, device=cpu), %fpn.inception.repeat_2.6.branch0.bn.running_var : Float(192, strides=[1], requires_grad=0, device=cpu), %fpn.inception.repeat_2.6.branch0.bn.num_batches_tracked : Long(requires_grad=0, device=cpu), %fpn.inception.repeat_2.6.branch1.0.conv.weight : Float(192, 2080, 1, 1, strides=[2080, 1, 1, 1], requires_grad=0, device=cpu), %fpn.inception.repeat_2.6.branch1.0.bn.weight : Float(192, strides=[1], requires_grad=0, device=cpu), %fpn.inception.repeat_2.6.branch1.0.bn.bias : Float(192, strides=[1], requires_grad=0, device=cpu), %fpn.inception.repeat_2.6.branch1.0.bn.running_mean : Float(192, strides=[1], requires_grad=0, device=cpu), %fpn.inception.repeat_2.6.branch1.0.bn.running_var : Float(192, strides=[1], requires_grad=0, device=cpu), %fpn.inception.repeat_2.6.branch1.0.bn.num_batches_tracked : Long(requires_grad=0, device=cpu), %fpn.inception.repeat_2.6.branch1.1.conv.weight : Float(224, 192, 1, 3, strides=[576, 3, 3, 1], requires_grad=0, device=cpu), %fpn.inception.repeat_2.6.branch1.1.bn.weight : Float(224, strides=[1], requires_grad=0, device=cpu), %fpn.inception.repeat_2.6.branch1.1.bn.bias : Float(224, strides=[1], requires_grad=0, device=cpu), %fpn.inception.repeat_2.6.branch1.1.bn.running_mean : Float(224, strides=[1], requires_grad=0, device=cpu), %fpn.inception.repeat_2.6.branch1.1.bn.running_var : Float(224, strides=[1], requires_grad=0, device=cpu), %fpn.inception.repeat_2.6.branch1.1.bn.num_batches_tracked : Long(requires_grad=0, device=cpu), %fpn.inception.repeat_2.6.branch1.2.conv.weight : Float(256, 224, 3, 1, strides=[672, 3, 1, 1], requires_grad=0, device=cpu), %fpn.inception.repeat_2.6.branch1.2.bn.weight : Float(256, strides=[1], requires_grad=0, device=cpu), %fpn.inception.repeat_2.6.branch1.2.bn.bias : Float(256, strides=[1], requires_grad=0, device=cpu), %fpn.inception.repeat_2.6.branch1.2.bn.running_mean : Float(256, strides=[1], requires_grad=0, device=cpu), %fpn.inception.repeat_2.6.branch1.2.bn.running_var : Float(256, strides=[1], requires_grad=0, device=cpu), %fpn.inception.repeat_2.6.branch1.2.bn.num_batches_tracked : Long(requires_grad=0, device=cpu), %fpn.inception.repeat_2.6.conv2d.weight : Float(2080, 448, 1, 1, strides=[448, 1, 1, 1], requires_grad=0, device=cpu), %fpn.inception.repeat_2.6.conv2d.bias : Float(2080, strides=[1], requires_grad=0, device=cpu), %fpn.inception.repeat_2.7.branch0.conv.weight : Float(192, 2080, 1, 1, strides=[2080, 1, 1, 1], requires_grad=0, device=cpu), %fpn.inception.repeat_2.7.branch0.bn.weight : Float(192, strides=[1], requires_grad=0, device=cpu), %fpn.inception.repeat_2.7.branch0.bn.bias : Float(192, strides=[1], requires_grad=0, device=cpu), %fpn.inception.repeat_2.7.branch0.bn.running_mean : Float(192, strides=[1], requires_grad=0, device=cpu), %fpn.inception.repeat_2.7.branch0.bn.running_var : Float(192, strides=[1], requires_grad=0, device=cpu), %fpn.inception.repeat_2.7.branch0.bn.num_batches_tracked : Long(requires_grad=0, device=cpu), %fpn.inception.repeat_2.7.branch1.0.conv.weight : Float(192, 2080, 1, 1, strides=[2080, 1, 1, 1], requires_grad=0, device=cpu), %fpn.inception.repeat_2.7.branch1.0.bn.weight : Float(192, strides=[1], requires_grad=0, device=cpu), %fpn.inception.repeat_2.7.branch1.0.bn.bias : Float(192, strides=[1], requires_grad=0, device=cpu), %fpn.inception.repeat_2.7.branch1.0.bn.running_mean : Float(192, strides=[1], requires_grad=0, device=cpu), %fpn.inception.repeat_2.7.branch1.0.bn.running_var : Float(192, strides=[1], requires_grad=0, device=cpu), %fpn.inception.repeat_2.7.branch1.0.bn.num_batches_tracked : Long(requires_grad=0, device=cpu), %fpn.inception.repeat_2.7.branch1.1.conv.weight : Float(224, 192, 1, 3, strides=[576, 3, 3, 1], requires_grad=0, device=cpu), %fpn.inception.repeat_2.7.branch1.1.bn.weight : Float(224, strides=[1], requires_grad=0, device=cpu), %fpn.inception.repeat_2.7.branch1.1.bn.bias : Float(224, strides=[1], requires_grad=0, device=cpu), %fpn.inception.repeat_2.7.branch1.1.bn.running_mean : Float(224, strides=[1], requires_grad=0, device=cpu), %fpn.inception.repeat_2.7.branch1.1.bn.running_var : Float(224, strides=[1], requires_grad=0, device=cpu), %fpn.inception.repeat_2.7.branch1.1.bn.num_batches_tracked : Long(requires_grad=0, device=cpu), %fpn.inception.repeat_2.7.branch1.2.conv.weight : Float(256, 224, 3, 1, strides=[672, 3, 1, 1], requires_grad=0, device=cpu), %fpn.inception.repeat_2.7.branch1.2.bn.weight : Float(256, strides=[1], requires_grad=0, device=cpu), %fpn.inception.repeat_2.7.branch1.2.bn.bias : Float(256, strides=[1], requires_grad=0, device=cpu), %fpn.inception.repeat_2.7.branch1.2.bn.running_mean : Float(256, strides=[1], requires_grad=0, device=cpu), %fpn.inception.repeat_2.7.branch1.2.bn.running_var : Float(256, strides=[1], requires_grad=0, device=cpu), %fpn.inception.repeat_2.7.branch1.2.bn.num_batches_tracked : Long(requires_grad=0, device=cpu), %fpn.inception.repeat_2.7.conv2d.weight : Float(2080, 448, 1, 1, strides=[448, 1, 1, 1], requires_grad=0, device=cpu), %fpn.inception.repeat_2.7.conv2d.bias : Float(2080, strides=[1], requires_grad=0, device=cpu), %fpn.inception.repeat_2.8.branch0.conv.weight : Float(192, 2080, 1, 1, strides=[2080, 1, 1, 1], requires_grad=0, device=cpu), %fpn.inception.repeat_2.8.branch0.bn.weight : Float(192, strides=[1], requires_grad=0, device=cpu), %fpn.inception.repeat_2.8.branch0.bn.bias : Float(192, strides=[1], requires_grad=0, device=cpu), %fpn.inception.repeat_2.8.branch0.bn.running_mean : Float(192, strides=[1], requires_grad=0, device=cpu), %fpn.inception.repeat_2.8.branch0.bn.running_var : Float(192, strides=[1], requires_grad=0, device=cpu), %fpn.inception.repeat_2.8.branch0.bn.num_batches_tracked : Long(requires_grad=0, device=cpu), %fpn.inception.repeat_2.8.branch1.0.conv.weight : Float(192, 2080, 1, 1, strides=[2080, 1, 1, 1], requires_grad=0, device=cpu), %fpn.inception.repeat_2.8.branch1.0.bn.weight : Float(192, strides=[1], requires_grad=0, device=cpu), %fpn.inception.repeat_2.8.branch1.0.bn.bias : Float(192, strides=[1], requires_grad=0, device=cpu), %fpn.inception.repeat_2.8.branch1.0.bn.running_mean : Float(192, strides=[1], requires_grad=0, device=cpu), %fpn.inception.repeat_2.8.branch1.0.bn.running_var : Float(192, strides=[1], requires_grad=0, device=cpu), %fpn.inception.repeat_2.8.branch1.0.bn.num_batches_tracked : Long(requires_grad=0, device=cpu), %fpn.inception.repeat_2.8.branch1.1.conv.weight : Float(224, 192, 1, 3, strides=[576, 3, 3, 1], requires_grad=0, device=cpu), %fpn.inception.repeat_2.8.branch1.1.bn.weight : Float(224, strides=[1], requires_grad=0, device=cpu), %fpn.inception.repeat_2.8.branch1.1.bn.bias : Float(224, strides=[1], requires_grad=0, device=cpu), %fpn.inception.repeat_2.8.branch1.1.bn.running_mean : Float(224, strides=[1], requires_grad=0, device=cpu), %fpn.inception.repeat_2.8.branch1.1.bn.running_var : Float(224, strides=[1], requires_grad=0, device=cpu), %fpn.inception.repeat_2.8.branch1.1.bn.num_batches_tracked : Long(requires_grad=0, device=cpu), %fpn.inception.repeat_2.8.branch1.2.conv.weight : Float(256, 224, 3, 1, strides=[672, 3, 1, 1], requires_grad=0, device=cpu), %fpn.inception.repeat_2.8.branch1.2.bn.weight : Float(256, strides=[1], requires_grad=0, device=cpu), %fpn.inception.repeat_2.8.branch1.2.bn.bias : Float(256, strides=[1], requires_grad=0, device=cpu), %fpn.inception.repeat_2.8.branch1.2.bn.running_mean : Float(256, strides=[1], requires_grad=0, device=cpu), %fpn.inception.repeat_2.8.branch1.2.bn.running_var : Float(256, strides=[1], requires_grad=0, device=cpu), %fpn.inception.repeat_2.8.branch1.2.bn.num_batches_tracked : Long(requires_grad=0, device=cpu), %fpn.inception.repeat_2.8.conv2d.weight : Float(2080, 448, 1, 1, strides=[448, 1, 1, 1], requires_grad=0, device=cpu), %fpn.inception.repeat_2.8.conv2d.bias : Float(2080, strides=[1], requires_grad=0, device=cpu), %fpn.inception.block8.branch0.conv.weight : Float(192, 2080, 1, 1, strides=[2080, 1, 1, 1], requires_grad=0, device=cpu), %fpn.inception.block8.branch0.bn.weight : Float(192, strides=[1], requires_grad=0, device=cpu), %fpn.inception.block8.branch0.bn.bias : Float(192, strides=[1], requires_grad=0, device=cpu), %fpn.inception.block8.branch0.bn.running_mean : Float(192, strides=[1], requires_grad=0, device=cpu), %fpn.inception.block8.branch0.bn.running_var : Float(192, strides=[1], requires_grad=0, device=cpu), %fpn.inception.block8.branch0.bn.num_batches_tracked : Long(requires_grad=0, device=cpu), %fpn.inception.block8.branch1.0.conv.weight : Float(192, 2080, 1, 1, strides=[2080, 1, 1, 1], requires_grad=0, device=cpu), %fpn.inception.block8.branch1.0.bn.weight : Float(192, strides=[1], requires_grad=0, device=cpu), %fpn.inception.block8.branch1.0.bn.bias : Float(192, strides=[1], requires_grad=0, device=cpu), %fpn.inception.block8.branch1.0.bn.running_mean : Float(192, strides=[1], requires_grad=0, device=cpu), %fpn.inception.block8.branch1.0.bn.running_var : Float(192, strides=[1], requires_grad=0, device=cpu), %fpn.inception.block8.branch1.0.bn.num_batches_tracked : Long(requires_grad=0, device=cpu), %fpn.inception.block8.branch1.1.conv.weight : Float(224, 192, 1, 3, strides=[576, 3, 3, 1], requires_grad=0, device=cpu), %fpn.inception.block8.branch1.1.bn.weight : Float(224, strides=[1], requires_grad=0, device=cpu), %fpn.inception.block8.branch1.1.bn.bias : Float(224, strides=[1], requires_grad=0, device=cpu), %fpn.inception.block8.branch1.1.bn.running_mean : Float(224, strides=[1], requires_grad=0, device=cpu), %fpn.inception.block8.branch1.1.bn.running_var : Float(224, strides=[1], requires_grad=0, device=cpu), %fpn.inception.block8.branch1.1.bn.num_batches_tracked : Long(requires_grad=0, device=cpu), %fpn.inception.block8.branch1.2.conv.weight : Float(256, 224, 3, 1, strides=[672, 3, 1, 1], requires_grad=0, device=cpu), %fpn.inception.block8.branch1.2.bn.weight : Float(256, strides=[1], requires_grad=0, device=cpu), %fpn.inception.block8.branch1.2.bn.bias : Float(256, strides=[1], requires_grad=0, device=cpu), %fpn.inception.block8.branch1.2.bn.running_mean : Float(256, strides=[1], requires_grad=0, device=cpu), %fpn.inception.block8.branch1.2.bn.running_var : Float(256, strides=[1], requires_grad=0, device=cpu), %fpn.inception.block8.branch1.2.bn.num_batches_tracked : Long(requires_grad=0, device=cpu), %fpn.inception.block8.conv2d.weight : Float(2080, 448, 1, 1, strides=[448, 1, 1, 1], requires_grad=0, device=cpu), %fpn.inception.block8.conv2d.bias : Float(2080, strides=[1], requires_grad=0, device=cpu), %fpn.inception.conv2d_7b.conv.weight : Float(1536, 2080, 1, 1, strides=[2080, 1, 1, 1], requires_grad=0, device=cpu), %fpn.inception.conv2d_7b.bn.weight : Float(1536, strides=[1], requires_grad=0, device=cpu), %fpn.inception.conv2d_7b.bn.bias : Float(1536, strides=[1], requires_grad=0, device=cpu), %fpn.inception.conv2d_7b.bn.running_mean : Float(1536, strides=[1], requires_grad=0, device=cpu), %fpn.inception.conv2d_7b.bn.running_var : Float(1536, strides=[1], requires_grad=0, device=cpu), %fpn.inception.conv2d_7b.bn.num_batches_tracked : Long(requires_grad=0, device=cpu), %fpn.inception.last_linear.weight : Float(1000, 1536, strides=[1536, 1], requires_grad=0, device=cpu), %fpn.inception.last_linear.bias : Float(1000, strides=[1], requires_grad=0, device=cpu), %fpn.td1.0.weight : Float(256, 256, 3, 3, strides=[2304, 9, 3, 1], requires_grad=1, device=cpu), %fpn.td1.0.bias : Float(256, strides=[1], requires_grad=1, device=cpu), %fpn.td1.1.running_mean : Float(256, strides=[1], requires_grad=0, device=cpu), %fpn.td1.1.running_var : Float(256, strides=[1], requires_grad=0, device=cpu), %fpn.td1.1.num_batches_tracked : Long(requires_grad=0, device=cpu), %fpn.td2.0.weight : Float(256, 256, 3, 3, strides=[2304, 9, 3, 1], requires_grad=1, device=cpu), %fpn.td2.0.bias : Float(256, strides=[1], requires_grad=1, device=cpu), %fpn.td2.1.running_mean : Float(256, strides=[1], requires_grad=0, device=cpu), %fpn.td2.1.running_var : Float(256, strides=[1], requires_grad=0, device=cpu), %fpn.td2.1.num_batches_tracked : Long(requires_grad=0, device=cpu), %fpn.td3.0.weight : Float(256, 256, 3, 3, strides=[2304, 9, 3, 1], requires_grad=1, device=cpu), %fpn.td3.0.bias : Float(256, strides=[1], requires_grad=1, device=cpu), %fpn.td3.1.running_mean : Float(256, strides=[1], requires_grad=0, device=cpu), %fpn.td3.1.running_var : Float(256, strides=[1], requires_grad=0, device=cpu), %fpn.td3.1.num_batches_tracked : Long(requires_grad=0, device=cpu), %fpn.lateral4.weight : Float(256, 2080, 1, 1, strides=[2080, 1, 1, 1], requires_grad=1, device=cpu), %fpn.lateral3.weight : Float(256, 1088, 1, 1, strides=[1088, 1, 1, 1], requires_grad=1, device=cpu), %fpn.lateral2.weight : Float(256, 192, 1, 1, strides=[192, 1, 1, 1], requires_grad=1, device=cpu), %fpn.lateral1.weight : Float(256, 64, 1, 1, strides=[64, 1, 1, 1], requires_grad=1, device=cpu), %fpn.lateral0.weight : Float(128, 32, 1, 1, strides=[32, 1, 1, 1], requires_grad=1, device=cpu), %head1.block0.weight : Float(128, 256, 3, 3, strides=[2304, 9, 3, 1], requires_grad=1, device=cpu), %head1.block1.weight : Float(128, 128, 3, 3, strides=[1152, 9, 3, 1], requires_grad=1, device=cpu), %head2.block0.weight : Float(128, 256, 3, 3, strides=[2304, 9, 3, 1], requires_grad=1, device=cpu), %head2.block1.weight : Float(128, 128, 3, 3, strides=[1152, 9, 3, 1], requires_grad=1, device=cpu), %head3.block0.weight : Float(128, 256, 3, 3, strides=[2304, 9, 3, 1], requires_grad=1, device=cpu), %head3.block1.weight : Float(128, 128, 3, 3, strides=[1152, 9, 3, 1], requires_grad=1, device=cpu), %head4.block0.weight : Float(128, 256, 3, 3, strides=[2304, 9, 3, 1], requires_grad=1, device=cpu), %head4.block1.weight : Float(128, 128, 3, 3, strides=[1152, 9, 3, 1], requires_grad=1, device=cpu), %smooth.0.weight : Float(128, 512, 3, 3, strides=[4608, 9, 3, 1], requires_grad=1, device=cpu), %smooth.0.bias : Float(128, str…
t_1.15.branch1.0.conv.weight : Float(128, 1088, 1, 1, strides=[1088, 1, 1, 1], requires_grad=0, device=cpu), %fpn.inception.repeat_1.15.branch1.0.bn.weight : Float(128, strides=[1], requires_grad=0, device=cpu), %fpn.inception.repeat_1.15.branch1.0.bn.bias : Float(128, strides=[1], requires_grad=0, device=cpu), %fpn.inception.repeat_1.15.branch1.0.bn.running_mean : Float(128, strides=[1], requires_grad=0, device=cpu), %fpn.inception.repeat_1.15.branch1.0.bn.running_var : Float(128, strides=[1], requires_grad=0, device=cpu), %fpn.inception.repeat_1.15.branch1.0.bn.num_batches_tracked : Long(requires_grad=0, device=cpu), %fpn.inception.repeat_1.15.branch1.1.conv.weight : Float(160, 128, 1, 7, strides=[896, 7, 7, 1], requires_grad=0, device=cpu), %fpn.inception.repeat_1.15.branch1.1.bn.weight : Float(160, strides=[1], requires_grad=0, device=cpu), %fpn.inception.repeat_1.15.branch1.1.bn.bias : Float(160, strides=[1], requires_grad=0, device=cpu), %fpn.inception.repeat_1.15.branch1.1.bn.running_mean : Float(160, strides=[1], requires_grad=0, device=cpu), %fpn.inception.repeat_1.15.branch1.1.bn.running_var : Float(160, strides=[1], requires_grad=0, device=cpu), %fpn.inception.repeat_1.15.branch1.1.bn.num_batches_tracked : Long(requires_grad=0, device=cpu), %fpn.inception.repeat_1.15.branch1.2.conv.weight : Float(192, 160, 7, 1, strides=[1120, 7, 1, 1], requires_grad=0, device=cpu), %fpn.inception.repeat_1.15.branch1.2.bn.weight : Float(192, strides=[1], requires_grad=0, device=cpu), %fpn.inception.repeat_1.15.branch1.2.bn.bias : Float(192, strides=[1], requires_grad=0, device=cpu), %fpn.inception.repeat_1.15.branch1.2.bn.running_mean : Float(192, strides=[1], requires_grad=0, device=cpu), %fpn.inception.repeat_1.15.branch1.2.bn.running_var : Float(192, strides=[1], requires_grad=0, device=cpu), %fpn.inception.repeat_1.15.branch1.2.bn.num_batches_tracked : Long(requires_grad=0, device=cpu), %fpn.inception.repeat_1.15.conv2d.weight : Float(1088, 384, 1, 1, strides=[384, 1, 1, 1], requires_grad=0, device=cpu), %fpn.inception.repeat_1.15.conv2d.bias : Float(1088, strides=[1], requires_grad=0, device=cpu), %fpn.inception.repeat_1.16.branch0.conv.weight : Float(192, 1088, 1, 1, strides=[1088, 1, 1, 1], requires_grad=0, device=cpu), %fpn.inception.repeat_1.16.branch0.bn.weight : Float(192, strides=[1], requires_grad=0, device=cpu), %fpn.inception.repeat_1.16.branch0.bn.bias : Float(192, strides=[1], requires_grad=0, device=cpu), %fpn.inception.repeat_1.16.branch0.bn.running_mean : Float(192, strides=[1], requires_grad=0, device=cpu), %fpn.inception.repeat_1.16.branch0.bn.running_var : Float(192, strides=[1], requires_grad=0, device=cpu), %fpn.inception.repeat_1.16.branch0.bn.num_batches_tracked : Long(requires_grad=0, device=cpu), %fpn.inception.repeat_1.16.branch1.0.conv.weight : Float(128, 1088, 1, 1, strides=[1088, 1, 1, 1], requires_grad=0, device=cpu), %fpn.inception.repeat_1.16.branch1.0.bn.weight : Float(128, strides=[1], requires_grad=0, device=cpu), %fpn.inception.repeat_1.16.branch1.0.bn.bias : Float(128, strides=[1], requires_grad=0, device=cpu), %fpn.inception.repeat_1.16.branch1.0.bn.running_mean : Float(128, strides=[1], requires_grad=0, device=cpu), %fpn.inception.repeat_1.16.branch1.0.bn.running_var : Float(128, strides=[1], requires_grad=0, device=cpu), %fpn.inception.repeat_1.16.branch1.0.bn.num_batches_tracked : Long(requires_grad=0, device=cpu), %fpn.inception.repeat_1.16.branch1.1.conv.weight : Float(160, 128, 1, 7, strides=[896, 7, 7, 1], requires_grad=0, device=cpu), %fpn.inception.repeat_1.16.branch1.1.bn.weight : Float(160, strides=[1], requires_grad=0, device=cpu), %fpn.inception.repeat_1.16.branch1.1.bn.bias : Float(160, strides=[1], requires_grad=0, device=cpu), %fpn.inception.repeat_1.16.branch1.1.bn.running_mean : Float(160, strides=[1], requires_grad=0, device=cpu), %fpn.inception.repeat_1.16.branch1.1.bn.running_var : Float(160, strides=[1], requires_grad=0, device=cpu), %fpn.inception.repeat_1.16.branch1.1.bn.num_batches_tracked : Long(requires_grad=0, device=cpu), %fpn.inception.repeat_1.16.branch1.2.conv.weight : Float(192, 160, 7, 1, strides=[1120, 7, 1, 1], requires_grad=0, device=cpu), %fpn.inception.repeat_1.16.branch1.2.bn.weight : Float(192, strides=[1], requires_grad=0, device=cpu), %fpn.inception.repeat_1.16.branch1.2.bn.bias : Float(192, strides=[1], requires_grad=0, device=cpu), %fpn.inception.repeat_1.16.branch1.2.bn.running_mean : Float(192, strides=[1], requires_grad=0, device=cpu), %fpn.inception.repeat_1.16.branch1.2.bn.running_var : Float(192, strides=[1], requires_grad=0, device=cpu), %fpn.inception.repeat_1.16.branch1.2.bn.num_batches_tracked : Long(requires_grad=0, device=cpu), %fpn.inception.repeat_1.16.conv2d.weight : Float(1088, 384, 1, 1, strides=[384, 1, 1, 1], requires_grad=0, device=cpu), %fpn.inception.repeat_1.16.conv2d.bias : Float(1088, strides=[1], requires_grad=0, device=cpu), %fpn.inception.repeat_1.17.branch0.conv.weight : Float(192, 1088, 1, 1, strides=[1088, 1, 1, 1], requires_grad=0, device=cpu), %fpn.inception.repeat_1.17.branch0.bn.weight : Float(192, strides=[1], requires_grad=0, device=cpu), %fpn.inception.repeat_1.17.branch0.bn.bias : Float(192, strides=[1], requires_grad=0, device=cpu), %fpn.inception.repeat_1.17.branch0.bn.running_mean : Float(192, strides=[1], requires_grad=0, device=cpu), %fpn.inception.repeat_1.17.branch0.bn.running_var : Float(192, strides=[1], requires_grad=0, device=cpu), %fpn.inception.repeat_1.17.branch0.bn.num_batches_tracked : Long(requires_grad=0, device=cpu), %fpn.inception.repeat_1.17.branch1.0.conv.weight : Float(128, 1088, 1, 1, strides=[1088, 1, 1, 1], requires_grad=0, device=cpu), %fpn.inception.repeat_1.17.branch1.0.bn.weight : Float(128, strides=[1], requires_grad=0, device=cpu), %fpn.inception.repeat_1.17.branch1.0.bn.bias : Float(128, strides=[1], requires_grad=0, device=cpu), %fpn.inception.repeat_1.17.branch1.0.bn.running_mean : Float(128, strides=[1], requires_grad=0, device=cpu), %fpn.inception.repeat_1.17.branch1.0.bn.running_var : Float(128, strides=[1], requires_grad=0, device=cpu), %fpn.inception.repeat_1.17.branch1.0.bn.num_batches_tracked : Long(requires_grad=0, device=cpu), %fpn.inception.repeat_1.17.branch1.1.conv.weight : Float(160, 128, 1, 7, strides=[896, 7, 7, 1], requires_grad=0, device=cpu), %fpn.inception.repeat_1.17.branch1.1.bn.weight : Float(160, strides=[1], requires_grad=0, device=cpu), %fpn.inception.repeat_1.17.branch1.1.bn.bias : Float(160, strides=[1], requires_grad=0, device=cpu), %fpn.inception.repeat_1.17.branch1.1.bn.running_mean : Float(160, strides=[1], requires_grad=0, device=cpu), %fpn.inception.repeat_1.17.branch1.1.bn.running_var : Float(160, strides=[1], requires_grad=0, device=cpu), %fpn.inception.repeat_1.17.branch1.1.bn.num_batches_tracked : Long(requires_grad=0, device=cpu), %fpn.inception.repeat_1.17.branch1.2.conv.weight : Float(192, 160, 7, 1, strides=[1120, 7, 1, 1], requires_grad=0, device=cpu), %fpn.inception.repeat_1.17.branch1.2.bn.weight : Float(192, strides=[1], requires_grad=0, device=cpu), %fpn.inception.repeat_1.17.branch1.2.bn.bias : Float(192, strides=[1], requires_grad=0, device=cpu), %fpn.inception.repeat_1.17.branch1.2.bn.running_mean : Float(192, strides=[1], requires_grad=0, device=cpu), %fpn.inception.repeat_1.17.branch1.2.bn.running_var : Float(192, strides=[1], requires_grad=0, device=cpu), %fpn.inception.repeat_1.17.branch1.2.bn.num_batches_tracked : Long(requires_grad=0, device=cpu), %fpn.inception.repeat_1.17.conv2d.weight : Float(1088, 384, 1, 1, strides=[384, 1, 1, 1], requires_grad=0, device=cpu), %fpn.inception.repeat_1.17.conv2d.bias : Float(1088, strides=[1], requires_grad=0, device=cpu), %fpn.inception.repeat_1.18.branch0.conv.weight : Float(192, 1088, 1, 1, strides=[1088, 1, 1, 1], requires_grad=0, device=cpu), %fpn.inception.repeat_1.18.branch0.bn.weight : Float(192, strides=[1], requires_grad=0, device=cpu), %fpn.inception.repeat_1.18.branch0.bn.bias : Float(192, strides=[1], requires_grad=0, device=cpu), %fpn.inception.repeat_1.18.branch0.bn.running_mean : Float(192, strides=[1], requires_grad=0, device=cpu), %fpn.inception.repeat_1.18.branch0.bn.running_var : Float(192, strides=[1], requires_grad=0, device=cpu), %fpn.inception.repeat_1.18.branch0.bn.num_batches_tracked : Long(requires_grad=0, device=cpu), %fpn.inception.repeat_1.18.branch1.0.conv.weight : Float(128, 1088, 1, 1, strides=[1088, 1, 1, 1], requires_grad=0, device=cpu), %fpn.inception.repeat_1.18.branch1.0.bn.weight : Float(128, strides=[1], requires_grad=0, device=cpu), %fpn.inception.repeat_1.18.branch1.0.bn.bias : Float(128, strides=[1], requires_grad=0, device=cpu), %fpn.inception.repeat_1.18.branch1.0.bn.running_mean : Float(128, strides=[1], requires_grad=0, device=cpu), %fpn.inception.repeat_1.18.branch1.0.bn.running_var : Float(128, strides=[1], requires_grad=0, device=cpu), %fpn.inception.repeat_1.18.branch1.0.bn.num_batches_tracked : Long(requires_grad=0, device=cpu), %fpn.inception.repeat_1.18.branch1.1.conv.weight : Float(160, 128, 1, 7, strides=[896, 7, 7, 1], requires_grad=0, device=cpu), %fpn.inception.repeat_1.18.branch1.1.bn.weight : Float(160, strides=[1], requires_grad=0, device=cpu), %fpn.inception.repeat_1.18.branch1.1.bn.bias : Float(160, strides=[1], requires_grad=0, device=cpu), %fpn.inception.repeat_1.18.branch1.1.bn.running_mean : Float(160, strides=[1], requires_grad=0, device=cpu), %fpn.inception.repeat_1.18.branch1.1.bn.running_var : Float(160, strides=[1], requires_grad=0, device=cpu), %fpn.inception.repeat_1.18.branch1.1.bn.num_batches_tracked : Long(requires_grad=0, device=cpu), %fpn.inception.repeat_1.18.branch1.2.conv.weight : Float(192, 160, 7, 1, strides=[1120, 7, 1, 1], requires_grad=0, device=cpu), %fpn.inception.repeat_1.18.branch1.2.bn.weight : Float(192, strides=[1], requires_grad=0, device=cpu), %fpn.inception.repeat_1.18.branch1.2.bn.bias : Float(192, strides=[1], requires_grad=0, device=cpu), %fpn.inception.repeat_1.18.branch1.2.bn.running_mean : Float(192, strides=[1], requires_grad=0, device=cpu), %fpn.inception.repeat_1.18.branch1.2.bn.running_var : Float(192, strides=[1], requires_grad=0, device=cpu), %fpn.inception.repeat_1.18.branch1.2.bn.num_batches_tracked : Long(requires_grad=0, device=cpu), %fpn.inception.repeat_1.18.conv2d.weight : Float(1088, 384, 1, 1, strides=[384, 1, 1, 1], requires_grad=0, device=cpu), %fpn.inception.repeat_1.18.conv2d.bias : Float(1088, strides=[1], requires_grad=0, device=cpu), %fpn.inception.repeat_1.19.branch0.conv.weight : Float(192, 1088, 1, 1, strides=[1088, 1, 1, 1], requires_grad=0, device=cpu), %fpn.inception.repeat_1.19.branch0.bn.weight : Float(192, strides=[1], requires_grad=0, device=cpu), %fpn.inception.repeat_1.19.branch0.bn.bias : Float(192, strides=[1], requires_grad=0, device=cpu), %fpn.inception.repeat_1.19.branch0.bn.running_mean : Float(192, strides=[1], requires_grad=0, device=cpu), %fpn.inception.repeat_1.19.branch0.bn.running_var : Float(192, strides=[1], requires_grad=0, device=cpu), %fpn.inception.repeat_1.19.branch0.bn.num_batches_tracked : Long(requires_grad=0, device=cpu), %fpn.inception.repeat_1.19.branch1.0.conv.weight : Float(128, 1088, 1, 1, strides=[1088, 1, 1, 1], requires_grad=0, device=cpu), %fpn.inception.repeat_1.19.branch1.0.bn.weight : Float(128, strides=[1], requires_grad=0, device=cpu), %fpn.inception.repeat_1.19.branch1.0.bn.bias : Float(128, strides=[1], requires_grad=0, device=cpu), %fpn.inception.repeat_1.19.branch1.0.bn.running_mean : Float(128, strides=[1], requires_grad=0, device=cpu), %fpn.inception.repeat_1.19.branch1.0.bn.running_var : Float(128, strides=[1], requires_grad=0, device=cpu), %fpn.inception.repeat_1.19.branch1.0.bn.num_batches_tracked : Long(requires_grad=0, device=cpu), %fpn.inception.repeat_1.19.branch1.1.conv.weight : Float(160, 128, 1, 7, strides=[896, 7, 7, 1], requires_grad=0, device=cpu), %fpn.inception.repeat_1.19.branch1.1.bn.weight : Float(160, strides=[1], requires_grad=0, device=cpu), %fpn.inception.repeat_1.19.branch1.1.bn.bias : Float(160, strides=[1], requires_grad=0, device=cpu), %fpn.inception.repeat_1.19.branch1.1.bn.running_mean : Float(160, strides=[1], requires_grad=0, device=cpu), %fpn.inception.repeat_1.19.branch1.1.bn.running_var : Float(160, strides=[1], requires_grad=0, device=cpu), %fpn.inception.repeat_1.19.branch1.1.bn.num_batches_tracked : Long(requires_grad=0, device=cpu), %fpn.inception.repeat_1.19.branch1.2.conv.weight : Float(192, 160, 7, 1, strides=[1120, 7, 1, 1], requires_grad=0, device=cpu), %fpn.inception.repeat_1.19.branch1.2.bn.weight : Float(192, strides=[1], requires_grad=0, device=cpu), %fpn.inception.repeat_1.19.branch1.2.bn.bias : Float(192, strides=[1], requires_grad=0, device=cpu), %fpn.inception.repeat_1.19.branch1.2.bn.running_mean : Float(192, strides=[1], requires_grad=0, device=cpu), %fpn.inception.repeat_1.19.branch1.2.bn.running_var : Float(192, strides=[1], requires_grad=0, device=cpu), %fpn.inception.repeat_1.19.branch1.2.bn.num_batches_tracked : Long(requires_grad=0, device=cpu), %fpn.inception.repeat_1.19.conv2d.weight : Float(1088, 384, 1, 1, strides=[384, 1, 1, 1], requires_grad=0, device=cpu), %fpn.inception.repeat_1.19.conv2d.bias : Float(1088, strides=[1], requires_grad=0, device=cpu), %fpn.inception.mixed_7a.branch0.0.conv.weight : Float(256, 1088, 1, 1, strides=[1088, 1, 1, 1], requires_grad=0, device=cpu), %fpn.inception.mixed_7a.branch0.0.bn.weight : Float(256, strides=[1], requires_grad=0, device=cpu), %fpn.inception.mixed_7a.branch0.0.bn.bias : Float(256, strides=[1], requires_grad=0, device=cpu), %fpn.inception.mixed_7a.branch0.0.bn.running_mean : Float(256, strides=[1], requires_grad=0, device=cpu), %fpn.inception.mixed_7a.branch0.0.bn.running_var : Float(256, strides=[1], requires_grad=0, device=cpu), %fpn.inception.mixed_7a.branch0.0.bn.num_batches_tracked : Long(requires_grad=0, device=cpu), %fpn.inception.mixed_7a.branch0.1.conv.weight : Float(384, 256, 3, 3, strides=[2304, 9, 3, 1], requires_grad=0, device=cpu), %fpn.inception.mixed_7a.branch0.1.bn.weight : Float(384, strides=[1], requires_grad=0, device=cpu), %fpn.inception.mixed_7a.branch0.1.bn.bias : Float(384, strides=[1], requires_grad=0, device=cpu), %fpn.inception.mixed_7a.branch0.1.bn.running_mean : Float(384, strides=[1], requires_grad=0, device=cpu), %fpn.inception.mixed_7a.branch0.1.bn.running_var : Float(384, strides=[1], requires_grad=0, device=cpu), %fpn.inception.mixed_7a.branch0.1.bn.num_batches_tracked : Long(requires_grad=0, device=cpu), %fpn.inception.mixed_7a.branch1.0.conv.weight : Float(256, 1088, 1, 1, strides=[1088, 1, 1, 1], requires_grad=0, device=cpu), %fpn.inception.mixed_7a.branch1.0.bn.weight : Float(256, strides=[1], requires_grad=0, device=cpu), %fpn.inception.mixed_7a.branch1.0.bn.bias : Float(256, strides=[1], requires_grad=0, device=cpu), %fpn.inception.mixed_7a.branch1.0.bn.running_mean : Float(256, strides=[1], requires_grad=0, device=cpu), %fpn.inception.mixed_7a.branch1.0.bn.running_var : Float(256, strides=[1], requires_grad=0, device=cpu), %fpn.inception.mixed_7a.branch1.0.bn.num_batches_tracked : Long(requires_grad=0, device=cpu), %fpn.inception.mixed_7a.branch1.1.conv.weight : Float(288, 256, 3, 3, strides=[2304, 9, 3, 1], requires_grad=0, device=cpu), %fpn.inception.mixed_7a.branch1.1.bn.weight : Float(288, strides=[1], requires_grad=0, device=cpu), %fpn.inception.mixed_7a.branch1.1.bn.bias : Float(288, strides=[1], requires_grad=0, device=cpu), %fpn.inception.mixed_7a.branch1.1.bn.running_mean : Float(288, strides=[1], requires_grad=0, device=cpu), %fpn.inception.mixed_7a.branch1.1.bn.running_var : Float(288, strides=[1], requires_grad=0, device=cpu), %fpn.inception.mixed_7a.branch1.1.bn.num_batches_tracked : Long(requires_grad=0, device=cpu), %fpn.inception.mixed_7a.branch2.0.conv.weight : Float(256, 1088, 1, 1, strides=[1088, 1, 1, 1], requires_grad=0, device=cpu), %fpn.inception.mixed_7a.branch2.0.bn.weight : Float(256, strides=[1], requires_grad=0, device=cpu), %fpn.inception.mixed_7a.branch2.0.bn.bias : Float(256, strides=[1], requires_grad=0, device=cpu), %fpn.inception.mixed_7a.branch2.0.bn.running_mean : Float(256, strides=[1], requires_grad=0, device=cpu), %fpn.inception.mixed_7a.branch2.0.bn.running_var : Float(256, strides=[1], requires_grad=0, device=cpu), %fpn.inception.mixed_7a.branch2.0.bn.num_batches_tracked : Long(requires_grad=0, device=cpu), %fpn.inception.mixed_7a.branch2.1.conv.weight : Float(288, 256, 3, 3, strides=[2304, 9, 3, 1], requires_grad=0, device=cpu), %fpn.inception.mixed_7a.branch2.1.bn.weight : Float(288, strides=[1], requires_grad=0, device=cpu), %fpn.inception.mixed_7a.branch2.1.bn.bias : Float(288, strides=[1], requires_grad=0, device=cpu), %fpn.inception.mixed_7a.branch2.1.bn.running_mean : Float(288, strides=[1], requires_grad=0, device=cpu), %fpn.inception.mixed_7a.branch2.1.bn.running_var : Float(288, strides=[1], requires_grad=0, device=cpu), %fpn.inception.mixed_7a.branch2.1.bn.num_batches_tracked : Long(requires_grad=0, device=cpu), %fpn.inception.mixed_7a.branch2.2.conv.weight : Float(320, 288, 3, 3, strides=[2592, 9, 3, 1], requires_grad=0, device=cpu), %fpn.inception.mixed_7a.branch2.2.bn.weight : Float(320, strides=[1], requires_grad=0, device=cpu), %fpn.inception.mixed_7a.branch2.2.bn.bias : Float(320, strides=[1], requires_grad=0, device=cpu), %fpn.inception.mixed_7a.branch2.2.bn.running_mean : Float(320, strides=[1], requires_grad=0, device=cpu), %fpn.inception.mixed_7a.branch2.2.bn.running_var : Float(320, strides=[1], requires_grad=0, device=cpu), %fpn.inception.mixed_7a.branch2.2.bn.num_batches_tracked : Long(requires_grad=0, device=cpu), %fpn.inception.repeat_2.0.branch0.conv.weight : Float(192, 2080, 1, 1, strides=[2080, 1, 1, 1], requires_grad=0, device=cpu), %fpn.inception.repeat_2.0.branch0.bn.weight : Float(192, strides=[1], requires_grad=0, device=cpu), %fpn.inception.repeat_2.0.branch0.bn.bias : Float(192, strides=[1], requires_grad=0, device=cpu), %fpn.inception.repeat_2.0.branch0.bn.running_mean : Float(192, strides=[1], requires_grad=0, device=cpu), %fpn.inception.repeat_2.0.branch0.bn.running_var : Float(192, strides=[1], requires_grad=0, device=cpu), %fpn.inception.repeat_2.0.branch0.bn.num_batches_tracked : Long(requires_grad=0, device=cpu), %fpn.inception.repeat_2.0.branch1.0.conv.weight : Float(192, 2080, 1, 1, strides=[2080, 1, 1, 1], requires_grad=0, device=cpu), %fpn.inception.repeat_2.0.branch1.0.bn.weight : Float(192, strides=[1], requires_grad=0, device=cpu), %fpn.inception.repeat_2.0.branch1.0.bn.bias : Float(192, strides=[1], requires_grad=0, device=cpu), %fpn.inception.repeat_2.0.branch1.0.bn.running_mean : Float(192, strides=[1], requires_grad=0, device=cpu), %fpn.inception.repeat_2.0.branch1.0.bn.running_var : Float(192, strides=[1], requires_grad=0, device=cpu), %fpn.inception.repeat_2.0.branch1.0.bn.num_batches_tracked : Long(requires_grad=0, device=cpu), %fpn.inception.repeat_2.0.branch1.1.conv.weight : Float(224, 192, 1, 3, strides=[576, 3, 3, 1], requires_grad=0, device=cpu), %fpn.inception.repeat_2.0.branch1.1.bn.weight : Float(224, strides=[1], requires_grad=0, device=cpu), %fpn.inception.repeat_2.0.branch1.1.bn.bias : Float(224, strides=[1], requires_grad=0, device=cpu), %fpn.inception.repeat_2.0.branch1.1.bn.running_mean : Float(224, strides=[1], requires_grad=0, device=cpu), %fpn.inception.repeat_2.0.branch1.1.bn.running_var : Float(224, strides=[1], requires_grad=0, device=cpu), %fpn.inception.repeat_2.0.branch1.1.bn.num_batches_tracked : Long(requires_grad=0, device=cpu), %fpn.inception.repeat_2.0.branch1.2.conv.weight : Float(256, 224, 3, 1, strides=[672, 3, 1, 1], requires_grad=0, device=cpu), %fpn.inception.repeat_2.0.branch1.2.bn.weight : Float(256, strides=[1], requires_grad=0, device=cpu), %fpn.inception.repeat_2.0.branch1.2.bn.bias : Float(256, strides=[1], requires_grad=0, device=cpu), %fpn.inception.repeat_2.0.branch1.2.bn.running_mean : Float(256, strides=[1], requires_grad=0, device=cpu), %fpn.inception.repeat_2.0.branch1.2.bn.running_var : Float(256, strides=[1], requires_grad=0, device=cpu), %fpn.inception.repeat_2.0.branch1.2.bn.num_batches_tracked : Long(requires_grad=0, device=cpu), %fpn.inception.repeat_2.0.conv2d.weight : Float(2080, 448, 1, 1, strides=[448, 1, 1, 1], requires_grad=0, device=cpu), %fpn.inception.repeat_2.0.conv2d.bias : Float(2080, strides=[1], requires_grad=0, device=cpu), %fpn.inception.repeat_2.1.branch0.conv.weight : Float(192, 2080, 1, 1, strides=[2080, 1, 1, 1], requires_grad=0, device=cpu), %fpn.inception.repeat_2.1.branch0.bn.weight : Float(192, strides=[1], requires_grad=0, device=cpu), %fpn.inception.repeat_2.1.branch0.bn.bias : Float(192, strides=[1], requires_grad=0, device=cpu), %fpn.inception.repeat_2.1.branch0.bn.running_mean : Float(192, strides=[1], requires_grad=0, device=cpu), %fpn.inception.repeat_2.1.branch0.bn.running_var : Float(192, strides=[1], requires_grad=0, device=cpu), %fpn.inception.repeat_2.1.branch0.bn.num_batches_tracked : Long(requires_grad=0, device=cpu), %fpn.inception.repeat_2.1.branch1.0.conv.weight : Float(192, 2080, 1, 1, strides=[2080, 1, 1, 1], requires_grad=0, device=cpu), %fpn.inception.repeat_2.1.branch1.0.bn.weight : Float(192, strides=[1], requires_grad=0, device=cpu), %fpn.inception.repeat_2.1.branch1.0.bn.bias : Float(192, strides=[1], requires_grad=0, device=cpu), %fpn.inception.repeat_2.1.branch1.0.bn.running_mean : Float(192, strides=[1], requires_grad=0, device=cpu), %fpn.inception.repeat_2.1.branch1.0.bn.running_var : Float(192, strides=[1], requires_grad=0, device=cpu), %fpn.inception.repeat_2.1.branch1.0.bn.num_batches_tracked : Long(requires_grad=0, device=cpu), %fpn.inception.repeat_2.1.branch1.1.conv.weight : Float(224, 192, 1, 3, strides=[576, 3, 3, 1], requires_grad=0, device=cpu), %fpn.inception.repeat_2.1.branch1.1.bn.weight : Float(224, strides=[1], requires_grad=0, device=cpu), %fpn.inception.repeat_2.1.branch1.1.bn.bias : Float(224, strides=[1], requires_grad=0, device=cpu), %fpn.inception.repeat_2.1.branch1.1.bn.running_mean : Float(224, strides=[1], requires_grad=0, device=cpu), %fpn.inception.repeat_2.1.branch1.1.bn.running_var : Float(224, strides=[1], requires_grad=0, device=cpu), %fpn.inception.repeat_2.1.branch1.1.bn.num_batches_tracked : Long(requires_grad=0, device=cpu), %fpn.inception.repeat_2.1.branch1.2.conv.weight : Float(256, 224, 3, 1, strides=[672, 3, 1, 1], requires_grad=0, device=cpu), %fpn.inception.repeat_2.1.branch1.2.bn.weight : Float(256, strides=[1], requires_grad=0, device=cpu), %fpn.inception.repeat_2.1.branch1.2.bn.bias : Float(256, strides=[1], requires_grad=0, device=cpu), %fpn.inception.repeat_2.1.branch1.2.bn.running_mean : Float(256, strides=[1], requires_grad=0, device=cpu), %fpn.inception.repeat_2.1.branch1.2.bn.running_var : Float(256, strides=[1], requires_grad=0, device=cpu), %fpn.inception.repeat_2.1.branch1.2.bn.num_batches_tracked : Long(requires_grad=0, device=cpu), %fpn.inception.repeat_2.1.conv2d.weight : Float(2080, 448, 1, 1, strides=[448, 1, 1, 1], requires_grad=0, device=cpu), %fpn.inception.repeat_2.1.conv2d.bias : Float(2080, strides=[1], requires_grad=0, device=cpu), %fpn.inception.repeat_2.2.branch0.conv.weight : Float(192, 2080, 1, 1, strides=[2080, 1, 1, 1], requires_grad=0, device=cpu), %fpn.inception.repeat_2.2.branch0.bn.weight : Float(192, strides=[1], requires_grad=0, device=cpu), %fpn.inception.repeat_2.2.branch0.bn.bias : Float(192, strides=[1], requires_grad=0, device=cpu), %fpn.inception.repeat_2.2.branch0.bn.running_mean : Float(192, strides=[1], requires_grad=0, device=cpu), %fpn.inception.repeat_2.2.branch0.bn.running_var : Float(192, strides=[1], requires_grad=0, device=cpu), %fpn.inception.repeat_2.2.branch0.bn.num_batches_tracked : Long(requires_grad=0, device=cpu), %fpn.inception.repeat_2.2.branch1.0.conv.weight : Float(192, 2080, 1, 1, strides=[2080, 1, 1, 1], requires_grad=0, device=cpu), %fpn.inception.repeat_2.2.branch1.0.bn.weight : Float(192, strides=[1], requires_grad=0, device=cpu), %fpn.inception.repeat_2.2.branch1.0.bn.bias : Float(192, strides=[1], requires_grad=0, device=cpu), %fpn.inception.repeat_2.2.branch1.0.bn.running_mean : Float(192, strides=[1], requires_grad=0, device=cpu), %fpn.inception.repeat_2.2.branch1.0.bn.running_var : Float(192, strides=[1], requires_grad=0, device=cpu), %fpn.inception.repeat_2.2.branch1.0.bn.num_batches_tracked : Long(requires_grad=0, device=cpu), %fpn.inception.repeat_2.2.branch1.1.conv.weight : Float(224, 192, 1, 3, strides=[576, 3, 3, 1], requires_grad=0, device=cpu), %fpn.inception.repeat_2.2.branch1.1.bn.weight : Float(224, strides=[1], requires_grad=0, device=cpu), %fpn.inception.repeat_2.2.branch1.1.bn.bias : Float(224, strides=[1], requires_grad=0, device=cpu), %fpn.inception.repeat_2.2.branch1.1.bn.running_mean : Float(224, strides=[1], requires_grad=0, device=cpu), %fpn.inception.repeat_2.2.branch1.1.bn.running_var : Float(224, strides=[1], requires_grad=0, device=cpu), %fpn.inception.repeat_2.2.branch1.1.bn.num_batches_tracked : Long(requires_grad=0, device=cpu), %fpn.inception.repeat_2.2.branch1.2.conv.weight : Float(256, 224, 3, 1, strides=[672, 3, 1, 1], requires_grad=0, device=cpu), %fpn.inception.repeat_2.2.branch1.2.bn.weight : Float(256, strides=[1], requires_grad=0, device=cpu), %fpn.inception.repeat_2.2.branch1.2.bn.bias : Float(256, strides=[1], requires_grad=0, device=cpu), %fpn.inception.repeat_2.2.branch1.2.bn.running_mean : Float(256, strides=[1], requires_grad=0, device=cpu), %fpn.inception.repeat_2.2.branch1.2.bn.running_var : Float(256, strides=[1], requires_grad=0, device=cpu), %fpn.inception.repeat_2.2.branch1.2.bn.num_batches_tracked : Long(requires_grad=0, device=cpu), %fpn.inception.repeat_2.2.conv2d.weight : Float(2080, 448, 1, 1, strides=[448, 1, 1, 1], requires_grad=0, device=cpu), %fpn.inception.repeat_2.2.conv2d.bias : Float(2080, strides=[1], requires_grad=0, device=cpu), %fpn.inception.repeat_2.3.branch0.conv.weight : Float(192, 2080, 1, 1, strides=[2080, 1, 1, 1], requires_grad=0, device=cpu), %fpn.inception.repeat_2.3.branch0.bn.weight : Float(192, strides=[1], requires_grad=0, device=cpu), %fpn.inception.repeat_2.3.branch0.bn.bias : Float(192, strides=[1], requires_grad=0, device=cpu), %fpn.inception.repeat_2.3.branch0.bn.running_mean : Float(192, strides=[1], requires_grad=0, device=cpu), %fpn.inception.repeat_2.3.branch0.bn.running_var : Float(192, strides=[1], requires_grad=0, device=cpu), %fpn.inception.repeat_2.3.branch0.bn.num_batches_tracked : Long(requires_grad=0, device=cpu), %fpn.inception.repeat_2.3.branch1.0.conv.weight : Float(192, 2080, 1, 1, strides=[2080, 1, 1, 1], requires_grad=0, device=cpu), %fpn.inception.repeat_2.3.branch1.0.bn.weight : Float(192, strides=[1], requires_grad=0, device=cpu), %fpn.inception.repeat_2.3.branch1.0.bn.bias : Float(192, strides=[1], requires_grad=0, device=cpu), %fpn.inception.repeat_2.3.branch1.0.bn.running_mean : Float(192, strides=[1], requires_grad=0, device=cpu), %fpn.inception.repeat_2.3.branch1.0.bn.running_var : Float(192, strides=[1], requires_grad=0, device=cpu), %fpn.inception.repeat_2.3.branch1.0.bn.num_batches_tracked : Long(requires_grad=0, device=cpu), %fpn.inception.repeat_2.3.branch1.1.conv.weight : Float(224, 192, 1, 3, strides=[576, 3, 3, 1], requires_grad=0, device=cpu), %fpn.inception.repeat_2.3.branch1.1.bn.weight : Float(224, strides=[1], requires_grad=0, device=cpu), %fpn.inception.repeat_2.3.branch1.1.bn.bias : Float(224, strides=[1], requires_grad=0, device=cpu), %fpn.inception.repeat_2.3.branch1.1.bn.running_mean : Float(224, strides=[1], requires_grad=0, device=cpu), %fpn.inception.repeat_2.3.branch1.1.bn.running_var : Float(224, strides=[1], requires_grad=0, device=cpu), %fpn.inception.repeat_2.3.branch1.1.bn.num_batches_tracked : Long(requires_grad=0, device=cpu), %fpn.inception.repeat_2.3.branch1.2.conv.weight : Float(256, 224, 3, 1, strides=[672, 3, 1, 1], requires_grad=0, device=cpu), %fpn.inception.repeat_2.3.branch1.2.bn.weight : Float(256, strides=[1], requires_grad=0, device=cpu), %fpn.inception.repeat_2.3.branch1.2.bn.bias : Float(256, strides=[1], requires_grad=0, device=cpu), %fpn.inception.repeat_2.3.branch1.2.bn.running_mean : Float(256, strides=[1], requires_grad=0, device=cpu), %fpn.inception.repeat_2.3.branch1.2.bn.running_var : Float(256, strides=[1], requires_grad=0, device=cpu), %fpn.inception.repeat_2.3.branch1.2.bn.num_batches_tracked : Long(requires_grad=0, device=cpu), %fpn.inception.repeat_2.3.conv2d.weight : Float(2080, 448, 1, 1, strides=[448, 1, 1, 1], requires_grad=0, device=cpu), %fpn.inception.repeat_2.3.conv2d.bias : Float(2080, strides=[1], requires_grad=0, device=cpu), %fpn.inception.repeat_2.4.branch0.conv.weight : Float(192, 2080, 1, 1, strides=[2080, 1, 1, 1], requires_grad=0, device=cpu), %fpn.inception.repeat_2.4.branch0.bn.weight : Float(192, strides=[1], requires_grad=0, device=cpu), %fpn.inception.repeat_2.4.branch0.bn.bias : Float(192, strides=[1], requires_grad=0, device=cpu), %fpn.inception.repeat_2.4.branch0.bn.running_mean : Float(192, strides=[1], requires_grad=0, device=cpu), %fpn.inception.repeat_2.4.branch0.bn.running_var : Float(192, strides=[1], requires_grad=0, device=cpu), %fpn.inception.repeat_2.4.branch0.bn.num_batches_tracked : Long(requires_grad=0, device=cpu), %fpn.inception.repeat_2.4.branch1.0.conv.weight : Float(192, 2080, 1, 1, strides=[2080, 1, 1, 1], requires_grad=0, device=cpu), %fpn.inception.repeat_2.4.branch1.0.bn.weight : Float(192, strides=[1], requires_grad=0, device=cpu), %fpn.inception.repeat_2.4.branch1.0.bn.bias : Float(192, strides=[1], requires_grad=0, device=cpu), %fpn.inception.repeat_2.4.branch1.0.bn.running_mean : Float(192, strides=[1], requires_grad=0, device=cpu), %fpn.inception.repeat_2.4.branch1.0.bn.running_var : Float(192, strides=[1], requires_grad=0, device=cpu), %fpn.inception.repeat_2.4.branch1.0.bn.num_batches_tracked : Long(requires_grad=0, device=cpu), %fpn.inception.repeat_2.4.branch1.1.conv.weight : Float(224, 192, 1, 3, strides=[576, 3, 3, 1], requires_grad=0, device=cpu), %fpn.inception.repeat_2.4.branch1.1.bn.weight : Float(224, strides=[1], requires_grad=0, device=cpu), %fpn.inception.repeat_2.4.branch1.1.bn.bias : Float(224, strides=[1], requires_grad=0, device=cpu), %fpn.inception.repeat_2.4.branch1.1.bn.running_mean : Float(224, strides=[1], requires_grad=0, device=cpu), %fpn.inception.repeat_2.4.branch1.1.bn.running_var : Float(224, strides=[1], requires_grad=0, device=cpu), %fpn.inception.repeat_2.4.branch1.1.bn.num_batches_tracked : Long(requires_grad=0, device=cpu), %fpn.inception.repeat_2.4.branch1.2.conv.weight : Float(256, 224, 3, 1, strides=[672, 3, 1, 1], requires_grad=0, device=cpu), %fpn.inception.repeat_2.4.branch1.2.bn.weight : Float(256, strides=[1], requires_grad=0, device=cpu), %fpn.inception.repeat_2.4.branch1.2.bn.bias : Float(256, strides=[1], requires_grad=0, device=cpu), %fpn.inception.repeat_2.4.branch1.2.bn.running_mean : Float(256, strides=[1], requires_grad=0, device=cpu), %fpn.inception.repeat_2.4.branch1.2.bn.running_var : Float(256, strides=[1], requires_grad=0, device=cpu), %fpn.inception.repeat_2.4.branch1.2.bn.num_batches_tracked : Long(requires_grad=0, device=cpu), %fpn.inception.repeat_2.4.conv2d.weight : Float(2080, 448, 1, 1, strides=[448, 1, 1, 1], requires_grad=0, device=cpu), %fpn.inception.repeat_2.4.conv2d.bias : Float(2080, strides=[1], requires_grad=0, device=cpu), %fpn.inception.repeat_2.5.branch0.conv.weight : Float(192, 2080, 1, 1, strides=[2080, 1, 1, 1], requires_grad=0, device=cpu), %fpn.inception.repeat_2.5.branch0.bn.weight : Float(192, strides=[1], requires_grad=0, device=cpu), %fpn.inception.repeat_2.5.branch0.bn.bias : Float(192, strides=[1], requires_grad=0, device=cpu), %fpn.inception.repeat_2.5.branch0.bn.running_mean : Float(192, strides=[1], requires_grad=0, device=cpu), %fpn.inception.repeat_2.5.branch0.bn.running_var : Float(192, strides=[1], requires_grad=0, device=cpu), %fpn.inception.repeat_2.5.branch0.bn.num_batches_tracked : Long(requires_grad=0, device=cpu), %fpn.inception.repeat_2.5.branch1.0.conv.weight : Float(192, 2080, 1, 1, strides=[2080, 1, 1, 1], requires_grad=0, device=cpu), %fpn.inception.repeat_2.5.branch1.0.bn.weight : Float(192, strides=[1], requires_grad=0, device=cpu), %fpn.inception.repeat_2.5.branch1.0.bn.bias : Float(192, strides=[1], requires_grad=0, device=cpu), %fpn.inception.repeat_2.5.branch1.0.bn.running_mean : Float(192, strides=[1], requires_grad=0, device=cpu), %fpn.inception.repeat_2.5.branch1.0.bn.running_var : Float(192, strides=[1], requires_grad=0, device=cpu), %fpn.inception.repeat_2.5.branch1.0.bn.num_batches_tracked : Long(requires_grad=0, device=cpu), %fpn.inception.repeat_2.5.branch1.1.conv.weight : Float(224, 192, 1, 3, strides=[576, 3, 3, 1], requires_grad=0, device=cpu), %fpn.inception.repeat_2.5.branch1.1.bn.weight : Float(224, strides=[1], requires_grad=0, device=cpu), %fpn.inception.repeat_2.5.branch1.1.bn.bias : Float(224, strides=[1], requires_grad=0, device=cpu), %fpn.inception.repeat_2.5.branch1.1.bn.running_mean : Float(224, strides=[1], requires_grad=0, device=cpu), %fpn.inception.repeat_2.5.branch1.1.bn.running_var : Float(224, strides=[1], requires_grad=0, device=cpu), %fpn.inception.repeat_2.5.branch1.1.bn.num_batches_tracked : Long(requires_grad=0, device=cpu), %fpn.inception.repeat_2.5.branch1.2.conv.weight : Float(256, 224, 3, 1, strides=[672, 3, 1, 1], requires_grad=0, device=cpu), %fpn.inception.repeat_2.5.branch1.2.bn.weight : Float(256, strides=[1], requires_grad=0, device=cpu), %fpn.inception.repeat_2.5.branch1.2.bn.bias : Float(256, strides=[1], requires_grad=0, device=cpu), %fpn.inception.repeat_2.5.branch1.2.bn.running_mean : Float(256, strides=[1], requires_grad=0, device=cpu), %fpn.inception.repeat_2.5.branch1.2.bn.running_var : Float(256, strides=[1], requires_grad=0, device=cpu), %fpn.inception.repeat_2.5.branch1.2.bn.num_batches_tracked : Long(requires_grad=0, device=cpu), %fpn.inception.repeat_2.5.conv2d.weight : Float(2080, 448, 1, 1, strides=[448, 1, 1, 1], requires_grad=0, device=cpu), %fpn.inception.repeat_2.5.conv2d.bias : Float(2080, strides=[1], requires_grad=0, device=cpu), %fpn.inception.repeat_2.6.branch0.conv.weight : Float(192, 2080, 1, 1, strides=[2080, 1, 1, 1], requires_grad=0, device=cpu), %fpn.inception.repeat_2.6.branch0.bn.weight : Float(192, strides=[1], requires_grad=0, device=cpu), %fpn.inception.repeat_2.6.branch0.bn.bias : Float(192, strides=[1], requires_grad=0, device=cpu), %fpn.inception.repeat_2.6.branch0.bn.running_mean : Float(192, strides=[1], requires_grad=0, device=cpu), %fpn.inception.repeat_2.6.branch0.bn.running_var : Float(192, strides=[1], requires_grad=0, device=cpu), %fpn.inception.repeat_2.6.branch0.bn.num_batches_tracked : Long(requires_grad=0, device=cpu), %fpn.inception.repeat_2.6.branch1.0.conv.weight : Float(192, 2080, 1, 1, strides=[2080, 1, 1, 1], requires_grad=0, device=cpu), %fpn.inception.repeat_2.6.branch1.0.bn.weight : Float(192, strides=[1], requires_grad=0, device=cpu), %fpn.inception.repeat_2.6.branch1.0.bn.bias : Float(192, strides=[1], requires_grad=0, device=cpu), %fpn.inception.repeat_2.6.branch1.0.bn.running_mean : Float(192, strides=[1], requires_grad=0, device=cpu), %fpn.inception.repeat_2.6.branch1.0.bn.running_var : Float(192, strides=[1], requires_grad=0, device=cpu), %fpn.inception.repeat_2.6.branch1.0.bn.num_batches_tracked : Long(requires_grad=0, device=cpu), %fpn.inception.repeat_2.6.branch1.1.conv.weight : Float(224, 192, 1, 3, strides=[576, 3, 3, 1], requires_grad=0, device=cpu), %fpn.inception.repeat_2.6.branch1.1.bn.weight : Float(224, strides=[1], requires_grad=0, device=cpu), %fpn.inception.repeat_2.6.branch1.1.bn.bias : Float(224, strides=[1], requires_grad=0, device=cpu), %fpn.inception.repeat_2.6.branch1.1.bn.running_mean : Float(224, strides=[1], requires_grad=0, device=cpu), %fpn.inception.repeat_2.6.branch1.1.bn.running_var : Float(224, strides=[1], requires_grad=0, device=cpu), %fpn.inception.repeat_2.6.branch1.1.bn.num_batches_tracked : Long(requires_grad=0, device=cpu), %fpn.inception.repeat_2.6.branch1.2.conv.weight : Float(256, 224, 3, 1, strides=[672, 3, 1, 1], requires_grad=0, device=cpu), %fpn.inception.repeat_2.6.branch1.2.bn.weight : Float(256, strides=[1], requires_grad=0, device=cpu), %fpn.inception.repeat_2.6.branch1.2.bn.bias : Float(256, strides=[1], requires_grad=0, device=cpu), %fpn.inception.repeat_2.6.branch1.2.bn.running_mean : Float(256, strides=[1], requires_grad=0, device=cpu), %fpn.inception.repeat_2.6.branch1.2.bn.running_var : Float(256, strides=[1], requires_grad=0, device=cpu), %fpn.inception.repeat_2.6.branch1.2.bn.num_batches_tracked : Long(requires_grad=0, device=cpu), %fpn.inception.repeat_2.6.conv2d.weight : Float(2080, 448, 1, 1, strides=[448, 1, 1, 1], requires_grad=0, device=cpu), %fpn.inception.repeat_2.6.conv2d.bias : Float(2080, strides=[1], requires_grad=0, device=cpu), %fpn.inception.repeat_2.7.branch0.conv.weight : Float(192, 2080, 1, 1, strides=[2080, 1, 1, 1], requires_grad=0, device=cpu), %fpn.inception.repeat_2.7.branch0.bn.weight : Float(192, strides=[1], requires_grad=0, device=cpu), %fpn.inception.repeat_2.7.branch0.bn.bias : Float(192, strides=[1], requires_grad=0, device=cpu), %fpn.inception.repeat_2.7.branch0.bn.running_mean : Float(192, strides=[1], requires_grad=0, device=cpu), %fpn.inception.repeat_2.7.branch0.bn.running_var : Float(192, strides=[1], requires_grad=0, device=cpu), %fpn.inception.repeat_2.7.branch0.bn.num_batches_tracked : Long(requires_grad=0, device=cpu), %fpn.inception.repeat_2.7.branch1.0.conv.weight : Float(192, 2080, 1, 1, strides=[2080, 1, 1, 1], requires_grad=0, device=cpu), %fpn.inception.repeat_2.7.branch1.0.bn.weight : Float(192, strides=[1], requires_grad=0, device=cpu), %fpn.inception.repeat_2.7.branch1.0.bn.bias : Float(192, strides=[1], requires_grad=0, device=cpu), %fpn.inception.repeat_2.7.branch1.0.bn.running_mean : Float(192, strides=[1], requires_grad=0, device=cpu), %fpn.inception.repeat_2.7.branch1.0.bn.running_var : Float(192, strides=[1], requires_grad=0, device=cpu), %fpn.inception.repeat_2.7.branch1.0.bn.num_batches_tracked : Long(requires_grad=0, device=cpu), %fpn.inception.repeat_2.7.branch1.1.conv.weight : Float(224, 192, 1, 3, strides=[576, 3, 3, 1], requires_grad=0, device=cpu), %fpn.inception.repeat_2.7.branch1.1.bn.weight : Float(224, strides=[1], requires_grad=0, device=cpu), %fpn.inception.repeat_2.7.branch1.1.bn.bias : Float(224, strides=[1], requires_grad=0, device=cpu), %fpn.inception.repeat_2.7.branch1.1.bn.running_mean : Float(224, strides=[1], requires_grad=0, device=cpu), %fpn.inception.repeat_2.7.branch1.1.bn.running_var : Float(224, strides=[1], requires_grad=0, device=cpu), %fpn.inception.repeat_2.7.branch1.1.bn.num_batches_tracked : Long(requires_grad=0, device=cpu), %fpn.inception.repeat_2.7.branch1.2.conv.weight : Float(256, 224, 3, 1, strides=[672, 3, 1, 1], requires_grad=0, device=cpu), %fpn.inception.repeat_2.7.branch1.2.bn.weight : Float(256, strides=[1], requires_grad=0, device=cpu), %fpn.inception.repeat_2.7.branch1.2.bn.bias : Float(256, strides=[1], requires_grad=0, device=cpu), %fpn.inception.repeat_2.7.branch1.2.bn.running_mean : Float(256, strides=[1], requires_grad=0, device=cpu), %fpn.inception.repeat_2.7.branch1.2.bn.running_var : Float(256, strides=[1], requires_grad=0, device=cpu), %fpn.inception.repeat_2.7.branch1.2.bn.num_batches_tracked : Long(requires_grad=0, device=cpu), %fpn.inception.repeat_2.7.conv2d.weight : Float(2080, 448, 1, 1, strides=[448, 1, 1, 1], requires_grad=0, device=cpu), %fpn.inception.repeat_2.7.conv2d.bias : Float(2080, strides=[1], requires_grad=0, device=cpu), %fpn.inception.repeat_2.8.branch0.conv.weight : Float(192, 2080, 1, 1, strides=[2080, 1, 1, 1], requires_grad=0, device=cpu), %fpn.inception.repeat_2.8.branch0.bn.weight : Float(192, strides=[1], requires_grad=0, device=cpu), %fpn.inception.repeat_2.8.branch0.bn.bias : Float(192, strides=[1], requires_grad=0, device=cpu), %fpn.inception.repeat_2.8.branch0.bn.running_mean : Float(192, strides=[1], requires_grad=0, device=cpu), %fpn.inception.repeat_2.8.branch0.bn.running_var : Float(192, strides=[1], requires_grad=0, device=cpu), %fpn.inception.repeat_2.8.branch0.bn.num_batches_tracked : Long(requires_grad=0, device=cpu), %fpn.inception.repeat_2.8.branch1.0.conv.weight : Float(192, 2080, 1, 1, strides=[2080, 1, 1, 1], requires_grad=0, device=cpu), %fpn.inception.repeat_2.8.branch1.0.bn.weight : Float(192, strides=[1], requires_grad=0, device=cpu), %fpn.inception.repeat_2.8.branch1.0.bn.bias : Float(192, strides=[1], requires_grad=0, device=cpu), %fpn.inception.repeat_2.8.branch1.0.bn.running_mean : Float(192, strides=[1], requires_grad=0, device=cpu), %fpn.inception.repeat_2.8.branch1.0.bn.running_var : Float(192, strides=[1], requires_grad=0, device=cpu), %fpn.inception.repeat_2.8.branch1.0.bn.num_batches_tracked : Long(requires_grad=0, device=cpu), %fpn.inception.repeat_2.8.branch1.1.conv.weight : Float(224, 192, 1, 3, strides=[576, 3, 3, 1], requires_grad=0, device=cpu), %fpn.inception.repeat_2.8.branch1.1.bn.weight : Float(224, strides=[1], requires_grad=0, device=cpu), %fpn.inception.repeat_2.8.branch1.1.bn.bias : Float(224, strides=[1], requires_grad=0, device=cpu), %fpn.inception.repeat_2.8.branch1.1.bn.running_mean : Float(224, strides=[1], requires_grad=0, device=cpu), %fpn.inception.repeat_2.8.branch1.1.bn.running_var : Float(224, strides=[1], requires_grad=0, device=cpu), %fpn.inception.repeat_2.8.branch1.1.bn.num_batches_tracked : Long(requires_grad=0, device=cpu), %fpn.inception.repeat_2.8.branch1.2.conv.weight : Float(256, 224, 3, 1, strides=[672, 3, 1, 1], requires_grad=0, device=cpu), %fpn.inception.repeat_2.8.branch1.2.bn.weight : Float(256, strides=[1], requires_grad=0, device=cpu), %fpn.inception.repeat_2.8.branch1.2.bn.bias : Float(256, strides=[1], requires_grad=0, device=cpu), %fpn.inception.repeat_2.8.branch1.2.bn.running_mean : Float(256, strides=[1], requires_grad=0, device=cpu), %fpn.inception.repeat_2.8.branch1.2.bn.running_var : Float(256, strides=[1], requires_grad=0, device=cpu), %fpn.inception.repeat_2.8.branch1.2.bn.num_batches_tracked : Long(requires_grad=0, device=cpu), %fpn.inception.repeat_2.8.conv2d.weight : Float(2080, 448, 1, 1, strides=[448, 1, 1, 1], requires_grad=0, device=cpu), %fpn.inception.repeat_2.8.conv2d.bias : Float(2080, strides=[1], requires_grad=0, device=cpu), %fpn.inception.block8.branch0.conv.weight : Float(192, 2080, 1, 1, strides=[2080, 1, 1, 1], requires_grad=0, device=cpu), %fpn.inception.block8.branch0.bn.weight : Float(192, strides=[1], requires_grad=0, device=cpu), %fpn.inception.block8.branch0.bn.bias : Float(192, strides=[1], requires_grad=0, device=cpu), %fpn.inception.block8.branch0.bn.running_mean : Float(192, strides=[1], requires_grad=0, device=cpu), %fpn.inception.block8.branch0.bn.running_var : Float(192, strides=[1], requires_grad=0, device=cpu), %fpn.inception.block8.branch0.bn.num_batches_tracked : Long(requires_grad=0, device=cpu), %fpn.inception.block8.branch1.0.conv.weight : Float(192, 2080, 1, 1, strides=[2080, 1, 1, 1], requires_grad=0, device=cpu), %fpn.inception.block8.branch1.0.bn.weight : Float(192, strides=[1], requires_grad=0, device=cpu), %fpn.inception.block8.branch1.0.bn.bias : Float(192, strides=[1], requires_grad=0, device=cpu), %fpn.inception.block8.branch1.0.bn.running_mean : Float(192, strides=[1], requires_grad=0, device=cpu), %fpn.inception.block8.branch1.0.bn.running_var : Float(192, strides=[1], requires_grad=0, device=cpu), %fpn.inception.block8.branch1.0.bn.num_batches_tracked : Long(requires_grad=0, device=cpu), %fpn.inception.block8.branch1.1.conv.weight : Float(224, 192, 1, 3, strides=[576, 3, 3, 1], requires_grad=0, device=cpu), %fpn.inception.block8.branch1.1.bn.weight : Float(224, strides=[1], requires_grad=0, device=cpu), %fpn.inception.block8.branch1.1.bn.bias : Float(224, strides=[1], requires_grad=0, device=cpu), %fpn.inception.block8.branch1.1.bn.running_mean : Float(224, strides=[1], requires_grad=0, device=cpu), %fpn.inception.block8.branch1.1.bn.running_var : Float(224, strides=[1], requires_grad=0, device=cpu), %fpn.inception.block8.branch1.1.bn.num_batches_tracked : Long(requires_grad=0, device=cpu), %fpn.inception.block8.branch1.2.conv.weight : Float(256, 224, 3, 1, strides=[672, 3, 1, 1], requires_grad=0, device=cpu), %fpn.inception.block8.branch1.2.bn.weight : Float(256, strides=[1], requires_grad=0, device=cpu), %fpn.inception.block8.branch1.2.bn.bias : Float(256, strides=[1], requires_grad=0, device=cpu), %fpn.inception.block8.branch1.2.bn.running_mean : Float(256, strides=[1], requires_grad=0, device=cpu), %fpn.inception.block8.branch1.2.bn.running_var : Float(256, strides=[1], requires_grad=0, device=cpu), %fpn.inception.block8.branch1.2.bn.num_batches_tracked : Long(requires_grad=0, device=cpu), %fpn.inception.block8.conv2d.weight : Float(2080, 448, 1, 1, strides=[448, 1, 1, 1], requires_grad=0, device=cpu), %fpn.inception.block8.conv2d.bias : Float(2080, strides=[1], requires_grad=0, device=cpu), %fpn.inception.conv2d_7b.conv.weight : Float(1536, 2080, 1, 1, strides=[2080, 1, 1, 1], requires_grad=0, device=cpu), %fpn.inception.conv2d_7b.bn.weight : Float(1536, strides=[1], requires_grad=0, device=cpu), %fpn.inception.conv2d_7b.bn.bias : Float(1536, strides=[1], requires_grad=0, device=cpu), %fpn.inception.conv2d_7b.bn.running_mean : Float(1536, strides=[1], requires_grad=0, device=cpu), %fpn.inception.conv2d_7b.bn.running_var : Float(1536, strides=[1], requires_grad=0, device=cpu), %fpn.inception.conv2d_7b.bn.num_batches_tracked : Long(requires_grad=0, device=cpu), %fpn.inception.last_linear.weight : Float(1000, 1536, strides=[1536, 1], requires_grad=0, device=cpu), %fpn.inception.last_linear.bias : Float(1000, strides=[1], requires_grad=0, device=cpu), %fpn.td1.0.weight : Float(256, 256, 3, 3, strides=[2304, 9, 3, 1], requires_grad=1, device=cpu), %fpn.td1.0.bias : Float(256, strides=[1], requires_grad=1, device=cpu), %fpn.td1.1.running_mean : Float(256, strides=[1], requires_grad=0, device=cpu), %fpn.td1.1.running_var : Float(256, strides=[1], requires_grad=0, device=cpu), %fpn.td1.1.num_batches_tracked : Long(requires_grad=0, device=cpu), %fpn.td2.0.weight : Float(256, 256, 3, 3, strides=[2304, 9, 3, 1], requires_grad=1, device=cpu), %fpn.td2.0.bias : Float(256, strides=[1], requires_grad=1, device=cpu), %fpn.td2.1.running_mean : Float(256, strides=[1], requires_grad=0, device=cpu), %fpn.td2.1.running_var : Float(256, strides=[1], requires_grad=0, device=cpu), %fpn.td2.1.num_batches_tracked : Long(requires_grad=0, device=cpu), %fpn.td3.0.weight : Float(256, 256, 3, 3, strides=[2304, 9, 3, 1], requires_grad=1, device=cpu), %fpn.td3.0.bias : Float(256, strides=[1], requires_grad=1, device=cpu), %fpn.td3.1.running_mean : Float(256, strides=[1], requires_grad=0, device=cpu), %fpn.td3.1.running_var : Float(256, strides=[1], requires_grad=0, device=cpu), %fpn.td3.1.num_batches_tracked : Long(requires_grad=0, device=cpu), %fpn.lateral4.weight : Float(256, 2080, 1, 1, strides=[2080, 1, 1, 1], requires_grad=1, device=cpu), %fpn.lateral3.weight : Float(256, 1088, 1, 1, strides=[1088, 1, 1, 1], requires_grad=1, device=cpu), %fpn.lateral2.weight : Float(256, 192, 1, 1, strides=[192, 1, 1, 1], requires_grad=1, device=cpu), %fpn.lateral1.weight : Float(256, 64, 1, 1, strides=[64, 1, 1, 1], requires_grad=1, device=cpu), %fpn.lateral0.weight : Float(128, 32, 1, 1, strides=[32, 1, 1, 1], requires_grad=1, device=cpu), %head1.block0.weight : Float(128, 256, 3, 3, strides=[2304, 9, 3, 1], requires_grad=1, device=cpu), %head1.block1.weight : Float(128, 128, 3, 3, strides=[1152, 9, 3, 1], requires_grad=1, device=cpu), %head2.block0.weight : Float(128, 256, 3, 3, strides=[2304, 9, 3, 1], requires_grad=1, device=cpu), %head2.block1.weight : Float(128, 128, 3, 3, strides=[1152, 9, 3, 1], requires_grad=1, device=cpu), %head3.block0.weight : Float(128, 256, 3, 3, strides=[2304, 9, 3, 1], requires_grad=1, device=cpu), %head3.block1.weight : Float(128, 128, 3, 3, strides=[1152, 9, 3, 1], requires_grad=1, device=cpu), %head4.block0.weight : Float(128, 256, 3, 3, strides=[2304, 9, 3, 1], requires_grad=1, device=cpu), %head4.block1.weight : Float(128, 128, 3, 3, strides=[1152, 9, 3, 1], requires_grad=1, device=cpu), %smooth.0.weight : Float(128, 512, 3, 3, strides=[4608, 9, 3, 1], requires_grad=1, device=cpu), %smooth.0.bias : Float(128, strides=[1], requires_grad=1, device=cpu), %smooth.1.running_mean : Float(128, strides=[1], requires_grad=0, device=cpu), %smooth.1.running_var : Float(128, strides=[1], requires_grad=0, device=cpu), %smooth.1.num_batches_tracked : Long(requires_grad=0, device=cpu), %smooth2.0.weight : Float(64, 128, 3, 3, strides=[1152, 9, 3, 1], requires_grad=1, device=cpu), %smooth2.0.bias : Float(64, strides=[1], requires_grad=1, device=cpu), %smooth2.1.running_mean : Float(64, strides=[1], requires_grad=0, device=cpu), %smooth2.1.running_var : Float(64, strides=[1], requires_grad=0, device=cpu), %smooth2.1.num_batches_tracked : Long(requires_grad=0, device=cpu), %final.weight : Float(3, 64, 3, 3, strides=[576, 9, 3, 1], requires_grad=1, device=cpu), %final.bias : Float(3, strides=[1], requires_grad=1, device=cpu) = prim::Param()
    )  (type 'Tensor')
    Outputs:
        #0: input.2036 defined in (%input.2036 : Float(*, 256, *, *, strides=[965632, 3772, 82, 1], requires_grad=0, device=cpu) = onnx::Conv[dilations=[1, 1], group=1, kernel_shape=[3, 3], pads=[1, 1, 1, 1], strides=[1, 1]](%input.2032, %fpn.td1.0.weight, %fpn.td1.0.bias), scope: models.fpn_inception.FPNInception::/models.fpn_inception.FPN::fpn/torch.nn.modules.container.Sequential::td1/torch.nn.modules.conv.Conv2d::td1.0 # /home/anllinux/miniconda3/envs/BAD-NeRF/lib/python3.8/site-packages/torch/nn/modules/conv.py:454:0
    )  (type 'Tensor')
